{"format": "graph-model", "generatedBy": "2.11.0", "convertedBy": "TensorFlow.js Converter v3.19.0", "signature": {"inputs": {"input_3": {"name": "input_3:0", "dtype": "DT_FLOAT", "tensorShape": {"dim": [{"size": "-1"}, {"size": "224"}, {"size": "224"}, {"size": "3"}]}}}, "outputs": {"dense_1": {"name": "Identity:0", "dtype": "DT_FLOAT", "tensorShape": {"dim": [{"size": "-1"}, {"size": "6"}]}}}}, "modelTopology": {"node": [{"name": "StatefulPartitionedCall/model_1/conv2d_51/Conv2D/ReadVariableOp", "op": "Const", "attr": {"dtype": {"type": "DT_FLOAT"}, "value": {"tensor": {"dtype": "DT_FLOAT", "tensorShape": {"dim": [{"size": "1"}, {"size": "1"}, {"size": "832"}, {"size": "384"}]}}}}}, {"name": "StatefulPartitionedCall/model_1/conv2d_51/BiasAdd/ReadVariableOp", "op": "Const", "attr": {"value": {"tensor": {"dtype": "DT_FLOAT", "tensorShape": {"dim": [{"size": "384"}]}}}, "dtype": {"type": "DT_FLOAT"}}}, {"name": "StatefulPartitionedCall/model_1/conv2d_52/Conv2D/ReadVariableOp", "op": "Const", "attr": {"dtype": {"type": "DT_FLOAT"}, "value": {"tensor": {"dtype": "DT_FLOAT", "tensorShape": {"dim": [{"size": "1"}, {"size": "1"}, {"size": "832"}, {"size": "192"}]}}}}}, {"name": "StatefulPartitionedCall/model_1/conv2d_52/BiasAdd/ReadVariableOp", "op": "Const", "attr": {"dtype": {"type": "DT_FLOAT"}, "value": {"tensor": {"dtype": "DT_FLOAT", "tensorShape": {"dim": [{"size": "192"}]}}}}}, {"name": "StatefulPartitionedCall/model_1/conv2d_53/Conv2D/ReadVariableOp", "op": "Const", "attr": {"value": {"tensor": {"dtype": "DT_FLOAT", "tensorShape": {"dim": [{"size": "3"}, {"size": "3"}, {"size": "192"}, {"size": "384"}]}}}, "dtype": {"type": "DT_FLOAT"}}}, {"name": "StatefulPartitionedCall/model_1/conv2d_53/BiasAdd/ReadVariableOp", "op": "Const", "attr": {"dtype": {"type": "DT_FLOAT"}, "value": {"tensor": {"dtype": "DT_FLOAT", "tensorShape": {"dim": [{"size": "384"}]}}}}}, {"name": "StatefulPartitionedCall/model_1/conv2d_54/Conv2D/ReadVariableOp", "op": "Const", "attr": {"value": {"tensor": {"dtype": "DT_FLOAT", "tensorShape": {"dim": [{"size": "1"}, {"size": "1"}, {"size": "832"}, {"size": "48"}]}}}, "dtype": {"type": "DT_FLOAT"}}}, {"name": "StatefulPartitionedCall/model_1/conv2d_54/BiasAdd/ReadVariableOp", "op": "Const", "attr": {"value": {"tensor": {"dtype": "DT_FLOAT", "tensorShape": {"dim": [{"size": "48"}]}}}, "dtype": {"type": "DT_FLOAT"}}}, {"name": "StatefulPartitionedCall/model_1/conv2d_55/Conv2D/ReadVariableOp", "op": "Const", "attr": {"value": {"tensor": {"dtype": "DT_FLOAT", "tensorShape": {"dim": [{"size": "5"}, {"size": "5"}, {"size": "48"}, {"size": "128"}]}}}, "dtype": {"type": "DT_FLOAT"}}}, {"name": "StatefulPartitionedCall/model_1/conv2d_55/BiasAdd/ReadVariableOp", "op": "Const", "attr": {"value": {"tensor": {"dtype": "DT_FLOAT", "tensorShape": {"dim": [{"size": "128"}]}}}, "dtype": {"type": "DT_FLOAT"}}}, {"name": "StatefulPartitionedCall/model_1/conv2d_45/Conv2D/ReadVariableOp", "op": "Const", "attr": {"value": {"tensor": {"dtype": "DT_FLOAT", "tensorShape": {"dim": [{"size": "1"}, {"size": "1"}, {"size": "832"}, {"size": "256"}]}}}, "dtype": {"type": "DT_FLOAT"}}}, {"name": "StatefulPartitionedCall/model_1/conv2d_45/BiasAdd/ReadVariableOp", "op": "Const", "attr": {"value": {"tensor": {"dtype": "DT_FLOAT", "tensorShape": {"dim": [{"size": "256"}]}}}, "dtype": {"type": "DT_FLOAT"}}}, {"name": "StatefulPartitionedCall/model_1/conv2d_46/Conv2D/ReadVariableOp", "op": "Const", "attr": {"dtype": {"type": "DT_FLOAT"}, "value": {"tensor": {"dtype": "DT_FLOAT", "tensorShape": {"dim": [{"size": "1"}, {"size": "1"}, {"size": "832"}, {"size": "160"}]}}}}}, {"name": "StatefulPartitionedCall/model_1/conv2d_46/BiasAdd/ReadVariableOp", "op": "Const", "attr": {"value": {"tensor": {"dtype": "DT_FLOAT", "tensorShape": {"dim": [{"size": "160"}]}}}, "dtype": {"type": "DT_FLOAT"}}}, {"name": "StatefulPartitionedCall/model_1/conv2d_47/Conv2D/ReadVariableOp", "op": "Const", "attr": {"dtype": {"type": "DT_FLOAT"}, "value": {"tensor": {"dtype": "DT_FLOAT", "tensorShape": {"dim": [{"size": "3"}, {"size": "3"}, {"size": "160"}, {"size": "320"}]}}}}}, {"name": "StatefulPartitionedCall/model_1/conv2d_47/BiasAdd/ReadVariableOp", "op": "Const", "attr": {"value": {"tensor": {"dtype": "DT_FLOAT", "tensorShape": {"dim": [{"size": "320"}]}}}, "dtype": {"type": "DT_FLOAT"}}}, {"name": "StatefulPartitionedCall/model_1/conv2d_48/Conv2D/ReadVariableOp", "op": "Const", "attr": {"value": {"tensor": {"dtype": "DT_FLOAT", "tensorShape": {"dim": [{"size": "1"}, {"size": "1"}, {"size": "832"}, {"size": "32"}]}}}, "dtype": {"type": "DT_FLOAT"}}}, {"name": "StatefulPartitionedCall/model_1/conv2d_48/BiasAdd/ReadVariableOp", "op": "Const", "attr": {"value": {"tensor": {"dtype": "DT_FLOAT", "tensorShape": {"dim": [{"size": "32"}]}}}, "dtype": {"type": "DT_FLOAT"}}}, {"name": "StatefulPartitionedCall/model_1/conv2d_49/Conv2D/ReadVariableOp", "op": "Const", "attr": {"dtype": {"type": "DT_FLOAT"}, "value": {"tensor": {"dtype": "DT_FLOAT", "tensorShape": {"dim": [{"size": "5"}, {"size": "5"}, {"size": "32"}, {"size": "128"}]}}}}}, {"name": "StatefulPartitionedCall/model_1/conv2d_49/BiasAdd/ReadVariableOp", "op": "Const", "attr": {"dtype": {"type": "DT_FLOAT"}, "value": {"tensor": {"dtype": "DT_FLOAT", "tensorShape": {"dim": [{"size": "128"}]}}}}}, {"name": "StatefulPartitionedCall/model_1/conv2d_39/Conv2D/ReadVariableOp", "op": "Const", "attr": {"value": {"tensor": {"dtype": "DT_FLOAT", "tensorShape": {"dim": [{"size": "1"}, {"size": "1"}, {"size": "528"}, {"size": "256"}]}}}, "dtype": {"type": "DT_FLOAT"}}}, {"name": "StatefulPartitionedCall/model_1/conv2d_39/BiasAdd/ReadVariableOp", "op": "Const", "attr": {"value": {"tensor": {"dtype": "DT_FLOAT", "tensorShape": {"dim": [{"size": "256"}]}}}, "dtype": {"type": "DT_FLOAT"}}}, {"name": "StatefulPartitionedCall/model_1/conv2d_40/Conv2D/ReadVariableOp", "op": "Const", "attr": {"value": {"tensor": {"dtype": "DT_FLOAT", "tensorShape": {"dim": [{"size": "1"}, {"size": "1"}, {"size": "528"}, {"size": "160"}]}}}, "dtype": {"type": "DT_FLOAT"}}}, {"name": "StatefulPartitionedCall/model_1/conv2d_40/BiasAdd/ReadVariableOp", "op": "Const", "attr": {"value": {"tensor": {"dtype": "DT_FLOAT", "tensorShape": {"dim": [{"size": "160"}]}}}, "dtype": {"type": "DT_FLOAT"}}}, {"name": "StatefulPartitionedCall/model_1/conv2d_41/Conv2D/ReadVariableOp", "op": "Const", "attr": {"value": {"tensor": {"dtype": "DT_FLOAT", "tensorShape": {"dim": [{"size": "3"}, {"size": "3"}, {"size": "160"}, {"size": "320"}]}}}, "dtype": {"type": "DT_FLOAT"}}}, {"name": "StatefulPartitionedCall/model_1/conv2d_41/BiasAdd/ReadVariableOp", "op": "Const", "attr": {"value": {"tensor": {"dtype": "DT_FLOAT", "tensorShape": {"dim": [{"size": "320"}]}}}, "dtype": {"type": "DT_FLOAT"}}}, {"name": "StatefulPartitionedCall/model_1/conv2d_42/Conv2D/ReadVariableOp", "op": "Const", "attr": {"value": {"tensor": {"dtype": "DT_FLOAT", "tensorShape": {"dim": [{"size": "1"}, {"size": "1"}, {"size": "528"}, {"size": "32"}]}}}, "dtype": {"type": "DT_FLOAT"}}}, {"name": "StatefulPartitionedCall/model_1/conv2d_42/BiasAdd/ReadVariableOp", "op": "Const", "attr": {"value": {"tensor": {"dtype": "DT_FLOAT", "tensorShape": {"dim": [{"size": "32"}]}}}, "dtype": {"type": "DT_FLOAT"}}}, {"name": "StatefulPartitionedCall/model_1/conv2d_43/Conv2D/ReadVariableOp", "op": "Const", "attr": {"dtype": {"type": "DT_FLOAT"}, "value": {"tensor": {"dtype": "DT_FLOAT", "tensorShape": {"dim": [{"size": "5"}, {"size": "5"}, {"size": "32"}, {"size": "128"}]}}}}}, {"name": "StatefulPartitionedCall/model_1/conv2d_43/BiasAdd/ReadVariableOp", "op": "Const", "attr": {"value": {"tensor": {"dtype": "DT_FLOAT", "tensorShape": {"dim": [{"size": "128"}]}}}, "dtype": {"type": "DT_FLOAT"}}}, {"name": "StatefulPartitionedCall/model_1/conv2d_33/Conv2D/ReadVariableOp", "op": "Const", "attr": {"value": {"tensor": {"dtype": "DT_FLOAT", "tensorShape": {"dim": [{"size": "1"}, {"size": "1"}, {"size": "512"}, {"size": "112"}]}}}, "dtype": {"type": "DT_FLOAT"}}}, {"name": "StatefulPartitionedCall/model_1/conv2d_33/BiasAdd/ReadVariableOp", "op": "Const", "attr": {"value": {"tensor": {"dtype": "DT_FLOAT", "tensorShape": {"dim": [{"size": "112"}]}}}, "dtype": {"type": "DT_FLOAT"}}}, {"name": "StatefulPartitionedCall/model_1/conv2d_34/Conv2D/ReadVariableOp", "op": "Const", "attr": {"value": {"tensor": {"dtype": "DT_FLOAT", "tensorShape": {"dim": [{"size": "1"}, {"size": "1"}, {"size": "512"}, {"size": "144"}]}}}, "dtype": {"type": "DT_FLOAT"}}}, {"name": "StatefulPartitionedCall/model_1/conv2d_34/BiasAdd/ReadVariableOp", "op": "Const", "attr": {"dtype": {"type": "DT_FLOAT"}, "value": {"tensor": {"dtype": "DT_FLOAT", "tensorShape": {"dim": [{"size": "144"}]}}}}}, {"name": "StatefulPartitionedCall/model_1/conv2d_35/Conv2D/ReadVariableOp", "op": "Const", "attr": {"dtype": {"type": "DT_FLOAT"}, "value": {"tensor": {"dtype": "DT_FLOAT", "tensorShape": {"dim": [{"size": "3"}, {"size": "3"}, {"size": "144"}, {"size": "288"}]}}}}}, {"name": "StatefulPartitionedCall/model_1/conv2d_35/BiasAdd/ReadVariableOp", "op": "Const", "attr": {"value": {"tensor": {"dtype": "DT_FLOAT", "tensorShape": {"dim": [{"size": "288"}]}}}, "dtype": {"type": "DT_FLOAT"}}}, {"name": "StatefulPartitionedCall/model_1/conv2d_36/Conv2D/ReadVariableOp", "op": "Const", "attr": {"value": {"tensor": {"dtype": "DT_FLOAT", "tensorShape": {"dim": [{"size": "1"}, {"size": "1"}, {"size": "512"}, {"size": "32"}]}}}, "dtype": {"type": "DT_FLOAT"}}}, {"name": "StatefulPartitionedCall/model_1/conv2d_36/BiasAdd/ReadVariableOp", "op": "Const", "attr": {"value": {"tensor": {"dtype": "DT_FLOAT", "tensorShape": {"dim": [{"size": "32"}]}}}, "dtype": {"type": "DT_FLOAT"}}}, {"name": "StatefulPartitionedCall/model_1/conv2d_37/Conv2D/ReadVariableOp", "op": "Const", "attr": {"value": {"tensor": {"dtype": "DT_FLOAT", "tensorShape": {"dim": [{"size": "5"}, {"size": "5"}, {"size": "32"}, {"size": "64"}]}}}, "dtype": {"type": "DT_FLOAT"}}}, {"name": "StatefulPartitionedCall/model_1/conv2d_37/BiasAdd/ReadVariableOp", "op": "Const", "attr": {"value": {"tensor": {"dtype": "DT_FLOAT", "tensorShape": {"dim": [{"size": "64"}]}}}, "dtype": {"type": "DT_FLOAT"}}}, {"name": "StatefulPartitionedCall/model_1/conv2d_27/Conv2D/ReadVariableOp", "op": "Const", "attr": {"value": {"tensor": {"dtype": "DT_FLOAT", "tensorShape": {"dim": [{"size": "1"}, {"size": "1"}, {"size": "512"}, {"size": "128"}]}}}, "dtype": {"type": "DT_FLOAT"}}}, {"name": "StatefulPartitionedCall/model_1/conv2d_27/BiasAdd/ReadVariableOp", "op": "Const", "attr": {"value": {"tensor": {"dtype": "DT_FLOAT", "tensorShape": {"dim": [{"size": "128"}]}}}, "dtype": {"type": "DT_FLOAT"}}}, {"name": "StatefulPartitionedCall/model_1/conv2d_28/Conv2D/ReadVariableOp", "op": "Const", "attr": {"value": {"tensor": {"dtype": "DT_FLOAT", "tensorShape": {"dim": [{"size": "1"}, {"size": "1"}, {"size": "512"}, {"size": "128"}]}}}, "dtype": {"type": "DT_FLOAT"}}}, {"name": "StatefulPartitionedCall/model_1/conv2d_28/BiasAdd/ReadVariableOp", "op": "Const", "attr": {"value": {"tensor": {"dtype": "DT_FLOAT", "tensorShape": {"dim": [{"size": "128"}]}}}, "dtype": {"type": "DT_FLOAT"}}}, {"name": "StatefulPartitionedCall/model_1/conv2d_29/Conv2D/ReadVariableOp", "op": "Const", "attr": {"dtype": {"type": "DT_FLOAT"}, "value": {"tensor": {"dtype": "DT_FLOAT", "tensorShape": {"dim": [{"size": "3"}, {"size": "3"}, {"size": "128"}, {"size": "256"}]}}}}}, {"name": "StatefulPartitionedCall/model_1/conv2d_29/BiasAdd/ReadVariableOp", "op": "Const", "attr": {"value": {"tensor": {"dtype": "DT_FLOAT", "tensorShape": {"dim": [{"size": "256"}]}}}, "dtype": {"type": "DT_FLOAT"}}}, {"name": "StatefulPartitionedCall/model_1/conv2d_30/Conv2D/ReadVariableOp", "op": "Const", "attr": {"value": {"tensor": {"dtype": "DT_FLOAT", "tensorShape": {"dim": [{"size": "1"}, {"size": "1"}, {"size": "512"}, {"size": "24"}]}}}, "dtype": {"type": "DT_FLOAT"}}}, {"name": "StatefulPartitionedCall/model_1/conv2d_30/BiasAdd/ReadVariableOp", "op": "Const", "attr": {"value": {"tensor": {"dtype": "DT_FLOAT", "tensorShape": {"dim": [{"size": "24"}]}}}, "dtype": {"type": "DT_FLOAT"}}}, {"name": "StatefulPartitionedCall/model_1/conv2d_31/Conv2D/ReadVariableOp", "op": "Const", "attr": {"value": {"tensor": {"dtype": "DT_FLOAT", "tensorShape": {"dim": [{"size": "5"}, {"size": "5"}, {"size": "24"}, {"size": "64"}]}}}, "dtype": {"type": "DT_FLOAT"}}}, {"name": "StatefulPartitionedCall/model_1/conv2d_31/BiasAdd/ReadVariableOp", "op": "Const", "attr": {"value": {"tensor": {"dtype": "DT_FLOAT", "tensorShape": {"dim": [{"size": "64"}]}}}, "dtype": {"type": "DT_FLOAT"}}}, {"name": "StatefulPartitionedCall/model_1/conv2d_21/Conv2D/ReadVariableOp", "op": "Const", "attr": {"dtype": {"type": "DT_FLOAT"}, "value": {"tensor": {"dtype": "DT_FLOAT", "tensorShape": {"dim": [{"size": "1"}, {"size": "1"}, {"size": "512"}, {"size": "160"}]}}}}}, {"name": "StatefulPartitionedCall/model_1/conv2d_21/BiasAdd/ReadVariableOp", "op": "Const", "attr": {"value": {"tensor": {"dtype": "DT_FLOAT", "tensorShape": {"dim": [{"size": "160"}]}}}, "dtype": {"type": "DT_FLOAT"}}}, {"name": "StatefulPartitionedCall/model_1/conv2d_22/Conv2D/ReadVariableOp", "op": "Const", "attr": {"dtype": {"type": "DT_FLOAT"}, "value": {"tensor": {"dtype": "DT_FLOAT", "tensorShape": {"dim": [{"size": "1"}, {"size": "1"}, {"size": "512"}, {"size": "112"}]}}}}}, {"name": "StatefulPartitionedCall/model_1/conv2d_22/BiasAdd/ReadVariableOp", "op": "Const", "attr": {"value": {"tensor": {"dtype": "DT_FLOAT", "tensorShape": {"dim": [{"size": "112"}]}}}, "dtype": {"type": "DT_FLOAT"}}}, {"name": "StatefulPartitionedCall/model_1/conv2d_23/Conv2D/ReadVariableOp", "op": "Const", "attr": {"value": {"tensor": {"dtype": "DT_FLOAT", "tensorShape": {"dim": [{"size": "3"}, {"size": "3"}, {"size": "112"}, {"size": "224"}]}}}, "dtype": {"type": "DT_FLOAT"}}}, {"name": "StatefulPartitionedCall/model_1/conv2d_23/BiasAdd/ReadVariableOp", "op": "Const", "attr": {"value": {"tensor": {"dtype": "DT_FLOAT", "tensorShape": {"dim": [{"size": "224"}]}}}, "dtype": {"type": "DT_FLOAT"}}}, {"name": "StatefulPartitionedCall/model_1/conv2d_24/Conv2D/ReadVariableOp", "op": "Const", "attr": {"dtype": {"type": "DT_FLOAT"}, "value": {"tensor": {"dtype": "DT_FLOAT", "tensorShape": {"dim": [{"size": "1"}, {"size": "1"}, {"size": "512"}, {"size": "24"}]}}}}}, {"name": "StatefulPartitionedCall/model_1/conv2d_24/BiasAdd/ReadVariableOp", "op": "Const", "attr": {"value": {"tensor": {"dtype": "DT_FLOAT", "tensorShape": {"dim": [{"size": "24"}]}}}, "dtype": {"type": "DT_FLOAT"}}}, {"name": "StatefulPartitionedCall/model_1/conv2d_25/Conv2D/ReadVariableOp", "op": "Const", "attr": {"value": {"tensor": {"dtype": "DT_FLOAT", "tensorShape": {"dim": [{"size": "5"}, {"size": "5"}, {"size": "24"}, {"size": "64"}]}}}, "dtype": {"type": "DT_FLOAT"}}}, {"name": "StatefulPartitionedCall/model_1/conv2d_25/BiasAdd/ReadVariableOp", "op": "Const", "attr": {"value": {"tensor": {"dtype": "DT_FLOAT", "tensorShape": {"dim": [{"size": "64"}]}}}, "dtype": {"type": "DT_FLOAT"}}}, {"name": "StatefulPartitionedCall/model_1/conv2d_15/Conv2D/ReadVariableOp", "op": "Const", "attr": {"value": {"tensor": {"dtype": "DT_FLOAT", "tensorShape": {"dim": [{"size": "1"}, {"size": "1"}, {"size": "480"}, {"size": "192"}]}}}, "dtype": {"type": "DT_FLOAT"}}}, {"name": "StatefulPartitionedCall/model_1/conv2d_15/BiasAdd/ReadVariableOp", "op": "Const", "attr": {"value": {"tensor": {"dtype": "DT_FLOAT", "tensorShape": {"dim": [{"size": "192"}]}}}, "dtype": {"type": "DT_FLOAT"}}}, {"name": "StatefulPartitionedCall/model_1/conv2d_16/Conv2D/ReadVariableOp", "op": "Const", "attr": {"dtype": {"type": "DT_FLOAT"}, "value": {"tensor": {"dtype": "DT_FLOAT", "tensorShape": {"dim": [{"size": "1"}, {"size": "1"}, {"size": "480"}, {"size": "96"}]}}}}}, {"name": "StatefulPartitionedCall/model_1/conv2d_16/BiasAdd/ReadVariableOp", "op": "Const", "attr": {"dtype": {"type": "DT_FLOAT"}, "value": {"tensor": {"dtype": "DT_FLOAT", "tensorShape": {"dim": [{"size": "96"}]}}}}}, {"name": "StatefulPartitionedCall/model_1/conv2d_17/Conv2D/ReadVariableOp", "op": "Const", "attr": {"dtype": {"type": "DT_FLOAT"}, "value": {"tensor": {"dtype": "DT_FLOAT", "tensorShape": {"dim": [{"size": "3"}, {"size": "3"}, {"size": "96"}, {"size": "208"}]}}}}}, {"name": "StatefulPartitionedCall/model_1/conv2d_17/BiasAdd/ReadVariableOp", "op": "Const", "attr": {"dtype": {"type": "DT_FLOAT"}, "value": {"tensor": {"dtype": "DT_FLOAT", "tensorShape": {"dim": [{"size": "208"}]}}}}}, {"name": "StatefulPartitionedCall/model_1/conv2d_18/Conv2D/ReadVariableOp", "op": "Const", "attr": {"value": {"tensor": {"dtype": "DT_FLOAT", "tensorShape": {"dim": [{"size": "1"}, {"size": "1"}, {"size": "480"}, {"size": "16"}]}}}, "dtype": {"type": "DT_FLOAT"}}}, {"name": "StatefulPartitionedCall/model_1/conv2d_18/BiasAdd/ReadVariableOp", "op": "Const", "attr": {"value": {"tensor": {"dtype": "DT_FLOAT", "tensorShape": {"dim": [{"size": "16"}]}}}, "dtype": {"type": "DT_FLOAT"}}}, {"name": "StatefulPartitionedCall/model_1/conv2d_19/Conv2D/ReadVariableOp", "op": "Const", "attr": {"dtype": {"type": "DT_FLOAT"}, "value": {"tensor": {"dtype": "DT_FLOAT", "tensorShape": {"dim": [{"size": "5"}, {"size": "5"}, {"size": "16"}, {"size": "48"}]}}}}}, {"name": "StatefulPartitionedCall/model_1/conv2d_19/BiasAdd/ReadVariableOp", "op": "Const", "attr": {"dtype": {"type": "DT_FLOAT"}, "value": {"tensor": {"dtype": "DT_FLOAT", "tensorShape": {"dim": [{"size": "48"}]}}}}}, {"name": "StatefulPartitionedCall/model_1/conv2d_9/Conv2D/ReadVariableOp", "op": "Const", "attr": {"dtype": {"type": "DT_FLOAT"}, "value": {"tensor": {"dtype": "DT_FLOAT", "tensorShape": {"dim": [{"size": "1"}, {"size": "1"}, {"size": "256"}, {"size": "128"}]}}}}}, {"name": "StatefulPartitionedCall/model_1/conv2d_9/BiasAdd/ReadVariableOp", "op": "Const", "attr": {"dtype": {"type": "DT_FLOAT"}, "value": {"tensor": {"dtype": "DT_FLOAT", "tensorShape": {"dim": [{"size": "128"}]}}}}}, {"name": "StatefulPartitionedCall/model_1/conv2d_10/Conv2D/ReadVariableOp", "op": "Const", "attr": {"value": {"tensor": {"dtype": "DT_FLOAT", "tensorShape": {"dim": [{"size": "1"}, {"size": "1"}, {"size": "256"}, {"size": "128"}]}}}, "dtype": {"type": "DT_FLOAT"}}}, {"name": "StatefulPartitionedCall/model_1/conv2d_10/BiasAdd/ReadVariableOp", "op": "Const", "attr": {"value": {"tensor": {"dtype": "DT_FLOAT", "tensorShape": {"dim": [{"size": "128"}]}}}, "dtype": {"type": "DT_FLOAT"}}}, {"name": "StatefulPartitionedCall/model_1/conv2d_11/Conv2D/ReadVariableOp", "op": "Const", "attr": {"dtype": {"type": "DT_FLOAT"}, "value": {"tensor": {"dtype": "DT_FLOAT", "tensorShape": {"dim": [{"size": "3"}, {"size": "3"}, {"size": "128"}, {"size": "192"}]}}}}}, {"name": "StatefulPartitionedCall/model_1/conv2d_11/BiasAdd/ReadVariableOp", "op": "Const", "attr": {"dtype": {"type": "DT_FLOAT"}, "value": {"tensor": {"dtype": "DT_FLOAT", "tensorShape": {"dim": [{"size": "192"}]}}}}}, {"name": "StatefulPartitionedCall/model_1/conv2d_12/Conv2D/ReadVariableOp", "op": "Const", "attr": {"dtype": {"type": "DT_FLOAT"}, "value": {"tensor": {"dtype": "DT_FLOAT", "tensorShape": {"dim": [{"size": "1"}, {"size": "1"}, {"size": "256"}, {"size": "32"}]}}}}}, {"name": "StatefulPartitionedCall/model_1/conv2d_12/BiasAdd/ReadVariableOp", "op": "Const", "attr": {"dtype": {"type": "DT_FLOAT"}, "value": {"tensor": {"dtype": "DT_FLOAT", "tensorShape": {"dim": [{"size": "32"}]}}}}}, {"name": "StatefulPartitionedCall/model_1/conv2d_13/Conv2D/ReadVariableOp", "op": "Const", "attr": {"dtype": {"type": "DT_FLOAT"}, "value": {"tensor": {"dtype": "DT_FLOAT", "tensorShape": {"dim": [{"size": "5"}, {"size": "5"}, {"size": "32"}, {"size": "96"}]}}}}}, {"name": "StatefulPartitionedCall/model_1/conv2d_13/BiasAdd/ReadVariableOp", "op": "Const", "attr": {"value": {"tensor": {"dtype": "DT_FLOAT", "tensorShape": {"dim": [{"size": "96"}]}}}, "dtype": {"type": "DT_FLOAT"}}}, {"name": "StatefulPartitionedCall/model_1/conv2d_3/Conv2D/ReadVariableOp", "op": "Const", "attr": {"dtype": {"type": "DT_FLOAT"}, "value": {"tensor": {"dtype": "DT_FLOAT", "tensorShape": {"dim": [{"size": "1"}, {"size": "1"}, {"size": "192"}, {"size": "64"}]}}}}}, {"name": "StatefulPartitionedCall/model_1/conv2d_3/BiasAdd/ReadVariableOp", "op": "Const", "attr": {"value": {"tensor": {"dtype": "DT_FLOAT", "tensorShape": {"dim": [{"size": "64"}]}}}, "dtype": {"type": "DT_FLOAT"}}}, {"name": "StatefulPartitionedCall/model_1/conv2d_4/Conv2D/ReadVariableOp", "op": "Const", "attr": {"value": {"tensor": {"dtype": "DT_FLOAT", "tensorShape": {"dim": [{"size": "1"}, {"size": "1"}, {"size": "192"}, {"size": "96"}]}}}, "dtype": {"type": "DT_FLOAT"}}}, {"name": "StatefulPartitionedCall/model_1/conv2d_4/BiasAdd/ReadVariableOp", "op": "Const", "attr": {"value": {"tensor": {"dtype": "DT_FLOAT", "tensorShape": {"dim": [{"size": "96"}]}}}, "dtype": {"type": "DT_FLOAT"}}}, {"name": "StatefulPartitionedCall/model_1/conv2d_5/Conv2D/ReadVariableOp", "op": "Const", "attr": {"value": {"tensor": {"dtype": "DT_FLOAT", "tensorShape": {"dim": [{"size": "3"}, {"size": "3"}, {"size": "96"}, {"size": "128"}]}}}, "dtype": {"type": "DT_FLOAT"}}}, {"name": "StatefulPartitionedCall/model_1/conv2d_5/BiasAdd/ReadVariableOp", "op": "Const", "attr": {"value": {"tensor": {"dtype": "DT_FLOAT", "tensorShape": {"dim": [{"size": "128"}]}}}, "dtype": {"type": "DT_FLOAT"}}}, {"name": "StatefulPartitionedCall/model_1/conv2d_6/Conv2D/ReadVariableOp", "op": "Const", "attr": {"value": {"tensor": {"dtype": "DT_FLOAT", "tensorShape": {"dim": [{"size": "1"}, {"size": "1"}, {"size": "192"}, {"size": "16"}]}}}, "dtype": {"type": "DT_FLOAT"}}}, {"name": "StatefulPartitionedCall/model_1/conv2d_6/BiasAdd/ReadVariableOp", "op": "Const", "attr": {"dtype": {"type": "DT_FLOAT"}, "value": {"tensor": {"dtype": "DT_FLOAT", "tensorShape": {"dim": [{"size": "16"}]}}}}}, {"name": "StatefulPartitionedCall/model_1/conv2d_7/Conv2D/ReadVariableOp", "op": "Const", "attr": {"value": {"tensor": {"dtype": "DT_FLOAT", "tensorShape": {"dim": [{"size": "5"}, {"size": "5"}, {"size": "16"}, {"size": "32"}]}}}, "dtype": {"type": "DT_FLOAT"}}}, {"name": "StatefulPartitionedCall/model_1/conv2d_7/BiasAdd/ReadVariableOp", "op": "Const", "attr": {"value": {"tensor": {"dtype": "DT_FLOAT", "tensorShape": {"dim": [{"size": "32"}]}}}, "dtype": {"type": "DT_FLOAT"}}}, {"name": "StatefulPartitionedCall/model_1/random_crop/stack/0", "op": "Const", "attr": {"value": {"tensor": {"dtype": "DT_INT32", "tensorShape": {}}}, "dtype": {"type": "DT_INT32"}}}, {"name": "ConstantFolding/StatefulPartitionedCall/model_1/random_crop/truediv_2_recip", "op": "Const", "attr": {"value": {"tensor": {"dtype": "DT_FLOAT", "tensorShape": {}}}, "dtype": {"type": "DT_FLOAT"}}}, {"name": "ConstantFolding/StatefulPartitionedCall/model_1/random_crop/truediv_3_recip", "op": "Const", "attr": {"value": {"tensor": {"dtype": "DT_FLOAT", "tensorShape": {}}}, "dtype": {"type": "DT_FLOAT"}}}, {"name": "StatefulPartitionedCall/model_1/random_crop/stack/3", "op": "Const", "attr": {"value": {"tensor": {"dtype": "DT_INT32", "tensorShape": {}}}, "dtype": {"type": "DT_INT32"}}}, {"name": "StatefulPartitionedCall/model_1/random_crop/stack_1/0", "op": "Const", "attr": {"value": {"tensor": {"dtype": "DT_INT32", "tensorShape": {}}}, "dtype": {"type": "DT_INT32"}}}, {"name": "StatefulPartitionedCall/model_1/random_crop/mul/y", "op": "Const", "attr": {"value": {"tensor": {"dtype": "DT_INT32", "tensorShape": {}}}, "dtype": {"type": "DT_INT32"}}}, {"name": "ConstantFolding/StatefulPartitionedCall/model_1/random_crop/truediv_recip", "op": "Const", "attr": {"dtype": {"type": "DT_FLOAT"}, "value": {"tensor": {"dtype": "DT_FLOAT", "tensorShape": {}}}}}, {"name": "StatefulPartitionedCall/model_1/random_crop/strided_slice_1/stack", "op": "Const", "attr": {"value": {"tensor": {"dtype": "DT_INT32", "tensorShape": {"dim": [{"size": "1"}]}}}, "dtype": {"type": "DT_INT32"}}}, {"name": "StatefulPartitionedCall/model_1/random_crop/strided_slice_1/stack_1", "op": "Const", "attr": {"value": {"tensor": {"dtype": "DT_INT32", "tensorShape": {"dim": [{"size": "1"}]}}}, "dtype": {"type": "DT_INT32"}}}, {"name": "StatefulPartitionedCall/model_1/random_crop/strided_slice_1/stack_2", "op": "Const", "attr": {"dtype": {"type": "DT_INT32"}, "value": {"tensor": {"dtype": "DT_INT32", "tensorShape": {"dim": [{"size": "1"}]}}}}}, {"name": "StatefulPartitionedCall/model_1/random_crop/strided_slice/stack", "op": "Const", "attr": {"dtype": {"type": "DT_INT32"}, "value": {"tensor": {"dtype": "DT_INT32", "tensorShape": {"dim": [{"size": "1"}]}}}}}, {"name": "StatefulPartitionedCall/model_1/random_crop/strided_slice/stack_1", "op": "Const", "attr": {"value": {"tensor": {"dtype": "DT_INT32", "tensorShape": {"dim": [{"size": "1"}]}}}, "dtype": {"type": "DT_INT32"}}}, {"name": "StatefulPartitionedCall/model_1/random_crop/strided_slice/stack_2", "op": "Const", "attr": {"dtype": {"type": "DT_INT32"}, "value": {"tensor": {"dtype": "DT_INT32", "tensorShape": {"dim": [{"size": "1"}]}}}}}, {"name": "StatefulPartitionedCall/model_1/random_crop/mul_1/y", "op": "Const", "attr": {"value": {"tensor": {"dtype": "DT_INT32", "tensorShape": {}}}, "dtype": {"type": "DT_INT32"}}}, {"name": "ConstantFolding/StatefulPartitionedCall/model_1/random_crop/truediv_1_recip", "op": "Const", "attr": {"value": {"tensor": {"dtype": "DT_FLOAT", "tensorShape": {}}}, "dtype": {"type": "DT_FLOAT"}}}, {"name": "StatefulPartitionedCall/model_1/random_crop/stack_1/3", "op": "Const", "attr": {"value": {"tensor": {"dtype": "DT_INT32", "tensorShape": {}}}, "dtype": {"type": "DT_INT32"}}}, {"name": "StatefulPartitionedCall/model_1/random_crop/resize/size", "op": "Const", "attr": {"value": {"tensor": {"dtype": "DT_INT32", "tensorShape": {"dim": [{"size": "2"}]}}}, "dtype": {"type": "DT_INT32"}}}, {"name": "StatefulPartitionedCall/model_1/resizing/resize/size", "op": "Const", "attr": {"value": {"tensor": {"dtype": "DT_INT32", "tensorShape": {"dim": [{"size": "2"}]}}}, "dtype": {"type": "DT_INT32"}}}, {"name": "StatefulPartitionedCall/model_1/resizing_1/resize/size", "op": "Const", "attr": {"value": {"tensor": {"dtype": "DT_INT32", "tensorShape": {"dim": [{"size": "2"}]}}}, "dtype": {"type": "DT_INT32"}}}, {"name": "StatefulPartitionedCall/model_1/rescaling_1/Cast/x", "op": "Const", "attr": {"value": {"tensor": {"dtype": "DT_FLOAT", "tensorShape": {}}}, "dtype": {"type": "DT_FLOAT"}}}, {"name": "StatefulPartitionedCall/model_1/rescaling_1/Cast_1", "op": "Const", "attr": {"dtype": {"type": "DT_FLOAT"}, "value": {"tensor": {"dtype": "DT_FLOAT", "tensorShape": {}}}}}, {"name": "StatefulPartitionedCall/model_1/conv2d/Conv2D/ReadVariableOp", "op": "Const", "attr": {"value": {"tensor": {"dtype": "DT_FLOAT", "tensorShape": {"dim": [{"size": "7"}, {"size": "7"}, {"size": "3"}, {"size": "64"}]}}}, "dtype": {"type": "DT_FLOAT"}}}, {"name": "StatefulPartitionedCall/model_1/conv2d/BiasAdd/ReadVariableOp", "op": "Const", "attr": {"value": {"tensor": {"dtype": "DT_FLOAT", "tensorShape": {"dim": [{"size": "64"}]}}}, "dtype": {"type": "DT_FLOAT"}}}, {"name": "StatefulPartitionedCall/model_1/conv2d_1/Conv2D/ReadVariableOp", "op": "Const", "attr": {"value": {"tensor": {"dtype": "DT_FLOAT", "tensorShape": {"dim": [{"size": "1"}, {"size": "1"}, {"size": "64"}, {"size": "64"}]}}}, "dtype": {"type": "DT_FLOAT"}}}, {"name": "StatefulPartitionedCall/model_1/conv2d_1/BiasAdd/ReadVariableOp", "op": "Const", "attr": {"value": {"tensor": {"dtype": "DT_FLOAT", "tensorShape": {"dim": [{"size": "64"}]}}}, "dtype": {"type": "DT_FLOAT"}}}, {"name": "StatefulPartitionedCall/model_1/conv2d_2/Conv2D/ReadVariableOp", "op": "Const", "attr": {"value": {"tensor": {"dtype": "DT_FLOAT", "tensorShape": {"dim": [{"size": "3"}, {"size": "3"}, {"size": "64"}, {"size": "192"}]}}}, "dtype": {"type": "DT_FLOAT"}}}, {"name": "StatefulPartitionedCall/model_1/conv2d_2/BiasAdd/ReadVariableOp", "op": "Const", "attr": {"value": {"tensor": {"dtype": "DT_FLOAT", "tensorShape": {"dim": [{"size": "192"}]}}}, "dtype": {"type": "DT_FLOAT"}}}, {"name": "StatefulPartitionedCall/model_1/conv2d_8/Conv2D/ReadVariableOp", "op": "Const", "attr": {"dtype": {"type": "DT_FLOAT"}, "value": {"tensor": {"dtype": "DT_FLOAT", "tensorShape": {"dim": [{"size": "1"}, {"size": "1"}, {"size": "192"}, {"size": "32"}]}}}}}, {"name": "StatefulPartitionedCall/model_1/conv2d_8/BiasAdd/ReadVariableOp", "op": "Const", "attr": {"value": {"tensor": {"dtype": "DT_FLOAT", "tensorShape": {"dim": [{"size": "32"}]}}}, "dtype": {"type": "DT_FLOAT"}}}, {"name": "StatefulPartitionedCall/model_1/concatenate/concat/axis", "op": "Const", "attr": {"dtype": {"type": "DT_INT32"}, "value": {"tensor": {"dtype": "DT_INT32", "tensorShape": {}}}}}, {"name": "StatefulPartitionedCall/model_1/conv2d_14/Conv2D/ReadVariableOp", "op": "Const", "attr": {"value": {"tensor": {"dtype": "DT_FLOAT", "tensorShape": {"dim": [{"size": "1"}, {"size": "1"}, {"size": "256"}, {"size": "64"}]}}}, "dtype": {"type": "DT_FLOAT"}}}, {"name": "StatefulPartitionedCall/model_1/conv2d_14/BiasAdd/ReadVariableOp", "op": "Const", "attr": {"dtype": {"type": "DT_FLOAT"}, "value": {"tensor": {"dtype": "DT_FLOAT", "tensorShape": {"dim": [{"size": "64"}]}}}}}, {"name": "StatefulPartitionedCall/model_1/concatenate_1/concat/axis", "op": "Const", "attr": {"dtype": {"type": "DT_INT32"}, "value": {"tensor": {"dtype": "DT_INT32", "tensorShape": {}}}}}, {"name": "StatefulPartitionedCall/model_1/conv2d_20/Conv2D/ReadVariableOp", "op": "Const", "attr": {"value": {"tensor": {"dtype": "DT_FLOAT", "tensorShape": {"dim": [{"size": "1"}, {"size": "1"}, {"size": "480"}, {"size": "64"}]}}}, "dtype": {"type": "DT_FLOAT"}}}, {"name": "StatefulPartitionedCall/model_1/conv2d_20/BiasAdd/ReadVariableOp", "op": "Const", "attr": {"value": {"tensor": {"dtype": "DT_FLOAT", "tensorShape": {"dim": [{"size": "64"}]}}}, "dtype": {"type": "DT_FLOAT"}}}, {"name": "StatefulPartitionedCall/model_1/concatenate_2/concat/axis", "op": "Const", "attr": {"value": {"tensor": {"dtype": "DT_INT32", "tensorShape": {}}}, "dtype": {"type": "DT_INT32"}}}, {"name": "StatefulPartitionedCall/model_1/conv2d_26/Conv2D/ReadVariableOp", "op": "Const", "attr": {"value": {"tensor": {"dtype": "DT_FLOAT", "tensorShape": {"dim": [{"size": "1"}, {"size": "1"}, {"size": "512"}, {"size": "64"}]}}}, "dtype": {"type": "DT_FLOAT"}}}, {"name": "StatefulPartitionedCall/model_1/conv2d_26/BiasAdd/ReadVariableOp", "op": "Const", "attr": {"value": {"tensor": {"dtype": "DT_FLOAT", "tensorShape": {"dim": [{"size": "64"}]}}}, "dtype": {"type": "DT_FLOAT"}}}, {"name": "StatefulPartitionedCall/model_1/concatenate_3/concat/axis", "op": "Const", "attr": {"value": {"tensor": {"dtype": "DT_INT32", "tensorShape": {}}}, "dtype": {"type": "DT_INT32"}}}, {"name": "StatefulPartitionedCall/model_1/conv2d_32/Conv2D/ReadVariableOp", "op": "Const", "attr": {"value": {"tensor": {"dtype": "DT_FLOAT", "tensorShape": {"dim": [{"size": "1"}, {"size": "1"}, {"size": "512"}, {"size": "64"}]}}}, "dtype": {"type": "DT_FLOAT"}}}, {"name": "StatefulPartitionedCall/model_1/conv2d_32/BiasAdd/ReadVariableOp", "op": "Const", "attr": {"value": {"tensor": {"dtype": "DT_FLOAT", "tensorShape": {"dim": [{"size": "64"}]}}}, "dtype": {"type": "DT_FLOAT"}}}, {"name": "StatefulPartitionedCall/model_1/concatenate_4/concat/axis", "op": "Const", "attr": {"dtype": {"type": "DT_INT32"}, "value": {"tensor": {"dtype": "DT_INT32", "tensorShape": {}}}}}, {"name": "StatefulPartitionedCall/model_1/conv2d_38/Conv2D/ReadVariableOp", "op": "Const", "attr": {"value": {"tensor": {"dtype": "DT_FLOAT", "tensorShape": {"dim": [{"size": "1"}, {"size": "1"}, {"size": "512"}, {"size": "64"}]}}}, "dtype": {"type": "DT_FLOAT"}}}, {"name": "StatefulPartitionedCall/model_1/conv2d_38/BiasAdd/ReadVariableOp", "op": "Const", "attr": {"value": {"tensor": {"dtype": "DT_FLOAT", "tensorShape": {"dim": [{"size": "64"}]}}}, "dtype": {"type": "DT_FLOAT"}}}, {"name": "StatefulPartitionedCall/model_1/concatenate_5/concat/axis", "op": "Const", "attr": {"dtype": {"type": "DT_INT32"}, "value": {"tensor": {"dtype": "DT_INT32", "tensorShape": {}}}}}, {"name": "StatefulPartitionedCall/model_1/conv2d_44/Conv2D/ReadVariableOp", "op": "Const", "attr": {"value": {"tensor": {"dtype": "DT_FLOAT", "tensorShape": {"dim": [{"size": "1"}, {"size": "1"}, {"size": "528"}, {"size": "128"}]}}}, "dtype": {"type": "DT_FLOAT"}}}, {"name": "StatefulPartitionedCall/model_1/conv2d_44/BiasAdd/ReadVariableOp", "op": "Const", "attr": {"value": {"tensor": {"dtype": "DT_FLOAT", "tensorShape": {"dim": [{"size": "128"}]}}}, "dtype": {"type": "DT_FLOAT"}}}, {"name": "StatefulPartitionedCall/model_1/concatenate_6/concat/axis", "op": "Const", "attr": {"value": {"tensor": {"dtype": "DT_INT32", "tensorShape": {}}}, "dtype": {"type": "DT_INT32"}}}, {"name": "StatefulPartitionedCall/model_1/conv2d_50/Conv2D/ReadVariableOp", "op": "Const", "attr": {"value": {"tensor": {"dtype": "DT_FLOAT", "tensorShape": {"dim": [{"size": "1"}, {"size": "1"}, {"size": "832"}, {"size": "128"}]}}}, "dtype": {"type": "DT_FLOAT"}}}, {"name": "StatefulPartitionedCall/model_1/conv2d_50/BiasAdd/ReadVariableOp", "op": "Const", "attr": {"value": {"tensor": {"dtype": "DT_FLOAT", "tensorShape": {"dim": [{"size": "128"}]}}}, "dtype": {"type": "DT_FLOAT"}}}, {"name": "StatefulPartitionedCall/model_1/concatenate_7/concat/axis", "op": "Const", "attr": {"value": {"tensor": {"dtype": "DT_INT32", "tensorShape": {}}}, "dtype": {"type": "DT_INT32"}}}, {"name": "StatefulPartitionedCall/model_1/conv2d_56/Conv2D/ReadVariableOp", "op": "Const", "attr": {"value": {"tensor": {"dtype": "DT_FLOAT", "tensorShape": {"dim": [{"size": "1"}, {"size": "1"}, {"size": "832"}, {"size": "128"}]}}}, "dtype": {"type": "DT_FLOAT"}}}, {"name": "StatefulPartitionedCall/model_1/conv2d_56/BiasAdd/ReadVariableOp", "op": "Const", "attr": {"value": {"tensor": {"dtype": "DT_FLOAT", "tensorShape": {"dim": [{"size": "128"}]}}}, "dtype": {"type": "DT_FLOAT"}}}, {"name": "StatefulPartitionedCall/model_1/concatenate_8/concat/axis", "op": "Const", "attr": {"value": {"tensor": {"dtype": "DT_INT32", "tensorShape": {}}}, "dtype": {"type": "DT_INT32"}}}, {"name": "StatefulPartitionedCall/model_1/flatten/Const", "op": "Const", "attr": {"dtype": {"type": "DT_INT32"}, "value": {"tensor": {"dtype": "DT_INT32", "tensorShape": {"dim": [{"size": "2"}]}}}}}, {"name": "StatefulPartitionedCall/model_1/dense_1/MatMul/ReadVariableOp", "op": "Const", "attr": {"dtype": {"type": "DT_FLOAT"}, "value": {"tensor": {"dtype": "DT_FLOAT", "tensorShape": {"dim": [{"size": "1024"}, {"size": "6"}]}}}}}, {"name": "StatefulPartitionedCall/model_1/dense_1/BiasAdd/ReadVariableOp", "op": "Const", "attr": {"value": {"tensor": {"dtype": "DT_FLOAT", "tensorShape": {"dim": [{"size": "6"}]}}}, "dtype": {"type": "DT_FLOAT"}}}, {"name": "input_3", "op": "Placeholder", "attr": {"shape": {"shape": {"dim": [{"size": "-1"}, {"size": "224"}, {"size": "224"}, {"size": "3"}]}}, "dtype": {"type": "DT_FLOAT"}}}, {"name": "StatefulPartitionedCall/model_1/random_crop/Shape", "op": "Shape", "input": ["input_3"], "attr": {"out_type": {"type": "DT_INT32"}, "T": {"type": "DT_FLOAT"}}}, {"name": "StatefulPartitionedCall/model_1/random_crop/strided_slice_1", "op": "StridedSlice", "input": ["StatefulPartitionedCall/model_1/random_crop/Shape", "StatefulPartitionedCall/model_1/random_crop/strided_slice_1/stack", "StatefulPartitionedCall/model_1/random_crop/strided_slice_1/stack_1", "StatefulPartitionedCall/model_1/random_crop/strided_slice_1/stack_2"], "attr": {"begin_mask": {"i": "0"}, "shrink_axis_mask": {"i": "1"}, "end_mask": {"i": "0"}, "T": {"type": "DT_INT32"}, "Index": {"type": "DT_INT32"}, "new_axis_mask": {"i": "0"}, "ellipsis_mask": {"i": "0"}}}, {"name": "StatefulPartitionedCall/model_1/random_crop/strided_slice", "op": "StridedSlice", "input": ["StatefulPartitionedCall/model_1/random_crop/Shape", "StatefulPartitionedCall/model_1/random_crop/strided_slice/stack", "StatefulPartitionedCall/model_1/random_crop/strided_slice/stack_1", "StatefulPartitionedCall/model_1/random_crop/strided_slice/stack_2"], "attr": {"Index": {"type": "DT_INT32"}, "new_axis_mask": {"i": "0"}, "shrink_axis_mask": {"i": "1"}, "ellipsis_mask": {"i": "0"}, "end_mask": {"i": "0"}, "T": {"type": "DT_INT32"}, "begin_mask": {"i": "0"}}}, {"name": "StatefulPartitionedCall/model_1/random_crop/mul", "op": "Mul", "input": ["StatefulPartitionedCall/model_1/random_crop/strided_slice_1", "StatefulPartitionedCall/model_1/random_crop/mul/y"], "attr": {"T": {"type": "DT_INT32"}}}, {"name": "StatefulPartitionedCall/model_1/random_crop/mul_1", "op": "Mul", "input": ["StatefulPartitionedCall/model_1/random_crop/strided_slice", "StatefulPartitionedCall/model_1/random_crop/mul_1/y"], "attr": {"T": {"type": "DT_INT32"}}}, {"name": "StatefulPartitionedCall/model_1/random_crop/Cast", "op": "Cast", "input": ["StatefulPartitionedCall/model_1/random_crop/mul"], "attr": {"DstT": {"type": "DT_FLOAT"}, "Truncate": {"b": false}, "SrcT": {"type": "DT_INT32"}}}, {"name": "StatefulPartitionedCall/model_1/random_crop/Cast_2", "op": "Cast", "input": ["StatefulPartitionedCall/model_1/random_crop/mul_1"], "attr": {"DstT": {"type": "DT_FLOAT"}, "SrcT": {"type": "DT_INT32"}, "Truncate": {"b": false}}}, {"name": "StatefulPartitionedCall/model_1/random_crop/truediv", "op": "Mul", "input": ["StatefulPartitionedCall/model_1/random_crop/Cast", "ConstantFolding/StatefulPartitionedCall/model_1/random_crop/truediv_recip"], "attr": {"T": {"type": "DT_FLOAT"}}}, {"name": "StatefulPartitionedCall/model_1/random_crop/truediv_1", "op": "Mul", "input": ["StatefulPartitionedCall/model_1/random_crop/Cast_2", "ConstantFolding/StatefulPartitionedCall/model_1/random_crop/truediv_1_recip"], "attr": {"T": {"type": "DT_FLOAT"}}}, {"name": "StatefulPartitionedCall/model_1/random_crop/Cast_1", "op": "Cast", "input": ["StatefulPartitionedCall/model_1/random_crop/truediv"], "attr": {"Truncate": {"b": false}, "DstT": {"type": "DT_INT32"}, "SrcT": {"type": "DT_FLOAT"}}}, {"name": "StatefulPartitionedCall/model_1/random_crop/Cast_3", "op": "Cast", "input": ["StatefulPartitionedCall/model_1/random_crop/truediv_1"], "attr": {"Truncate": {"b": false}, "DstT": {"type": "DT_INT32"}, "SrcT": {"type": "DT_FLOAT"}}}, {"name": "StatefulPartitionedCall/model_1/random_crop/Minimum", "op": "Minimum", "input": ["StatefulPartitionedCall/model_1/random_crop/strided_slice", "StatefulPartitionedCall/model_1/random_crop/Cast_1"], "attr": {"T": {"type": "DT_INT32"}}}, {"name": "StatefulPartitionedCall/model_1/random_crop/Minimum_1", "op": "Minimum", "input": ["StatefulPartitionedCall/model_1/random_crop/strided_slice_1", "StatefulPartitionedCall/model_1/random_crop/Cast_3"], "attr": {"T": {"type": "DT_INT32"}}}, {"name": "StatefulPartitionedCall/model_1/random_crop/sub", "op": "Sub", "input": ["StatefulPartitionedCall/model_1/random_crop/strided_slice", "StatefulPartitionedCall/model_1/random_crop/Minimum"], "attr": {"T": {"type": "DT_INT32"}}}, {"name": "StatefulPartitionedCall/model_1/random_crop/sub_1", "op": "Sub", "input": ["StatefulPartitionedCall/model_1/random_crop/strided_slice_1", "StatefulPartitionedCall/model_1/random_crop/Minimum_1"], "attr": {"T": {"type": "DT_INT32"}}}, {"name": "StatefulPartitionedCall/model_1/random_crop/stack_1", "op": "Pack", "input": ["StatefulPartitionedCall/model_1/random_crop/stack_1/0", "StatefulPartitionedCall/model_1/random_crop/Minimum", "StatefulPartitionedCall/model_1/random_crop/Minimum_1", "StatefulPartitionedCall/model_1/random_crop/stack_1/3"], "attr": {"T": {"type": "DT_INT32"}, "axis": {"i": "0"}, "N": {"i": "4"}}}, {"name": "StatefulPartitionedCall/model_1/random_crop/Cast_4", "op": "Cast", "input": ["StatefulPartitionedCall/model_1/random_crop/sub"], "attr": {"DstT": {"type": "DT_FLOAT"}, "Truncate": {"b": false}, "SrcT": {"type": "DT_INT32"}}}, {"name": "StatefulPartitionedCall/model_1/random_crop/Cast_6", "op": "Cast", "input": ["StatefulPartitionedCall/model_1/random_crop/sub_1"], "attr": {"Truncate": {"b": false}, "SrcT": {"type": "DT_INT32"}, "DstT": {"type": "DT_FLOAT"}}}, {"name": "StatefulPartitionedCall/model_1/random_crop/truediv_2", "op": "Mul", "input": ["StatefulPartitionedCall/model_1/random_crop/Cast_4", "ConstantFolding/StatefulPartitionedCall/model_1/random_crop/truediv_2_recip"], "attr": {"T": {"type": "DT_FLOAT"}}}, {"name": "StatefulPartitionedCall/model_1/random_crop/truediv_3", "op": "Mul", "input": ["StatefulPartitionedCall/model_1/random_crop/Cast_6", "ConstantFolding/StatefulPartitionedCall/model_1/random_crop/truediv_3_recip"], "attr": {"T": {"type": "DT_FLOAT"}}}, {"name": "StatefulPartitionedCall/model_1/random_crop/Cast_5", "op": "Cast", "input": ["StatefulPartitionedCall/model_1/random_crop/truediv_2"], "attr": {"DstT": {"type": "DT_INT32"}, "SrcT": {"type": "DT_FLOAT"}, "Truncate": {"b": false}}}, {"name": "StatefulPartitionedCall/model_1/random_crop/Cast_7", "op": "Cast", "input": ["StatefulPartitionedCall/model_1/random_crop/truediv_3"], "attr": {"Truncate": {"b": false}, "SrcT": {"type": "DT_FLOAT"}, "DstT": {"type": "DT_INT32"}}}, {"name": "StatefulPartitionedCall/model_1/random_crop/stack", "op": "Pack", "input": ["StatefulPartitionedCall/model_1/random_crop/stack/0", "StatefulPartitionedCall/model_1/random_crop/Cast_5", "StatefulPartitionedCall/model_1/random_crop/Cast_7", "StatefulPartitionedCall/model_1/random_crop/stack/3"], "attr": {"axis": {"i": "0"}, "N": {"i": "4"}, "T": {"type": "DT_INT32"}}}, {"name": "StatefulPartitionedCall/model_1/random_crop/Slice", "op": "Slice", "input": ["input_3", "StatefulPartitionedCall/model_1/random_crop/stack", "StatefulPartitionedCall/model_1/random_crop/stack_1"], "attr": {"T": {"type": "DT_FLOAT"}, "Index": {"type": "DT_INT32"}}}, {"name": "StatefulPartitionedCall/model_1/random_crop/resize/ResizeBilinear", "op": "ResizeBilinear", "input": ["StatefulPartitionedCall/model_1/random_crop/Slice", "StatefulPartitionedCall/model_1/random_crop/resize/size"], "attr": {"T": {"type": "DT_FLOAT"}, "align_corners": {"b": false}, "half_pixel_centers": {"b": true}}}, {"name": "StatefulPartitionedCall/model_1/resizing/resize/ResizeBilinear", "op": "ResizeBilinear", "input": ["StatefulPartitionedCall/model_1/random_crop/resize/ResizeBilinear", "StatefulPartitionedCall/model_1/resizing/resize/size"], "attr": {"half_pixel_centers": {"b": true}, "align_corners": {"b": false}, "T": {"type": "DT_FLOAT"}}}, {"name": "StatefulPartitionedCall/model_1/resizing_1/resize/ResizeBilinear", "op": "ResizeBilinear", "input": ["StatefulPartitionedCall/model_1/resizing/resize/ResizeBilinear", "StatefulPartitionedCall/model_1/resizing_1/resize/size"], "attr": {"align_corners": {"b": false}, "T": {"type": "DT_FLOAT"}, "half_pixel_centers": {"b": true}}}, {"name": "StatefulPartitionedCall/model_1/rescaling_1/mul", "op": "Mul", "input": ["StatefulPartitionedCall/model_1/resizing_1/resize/ResizeBilinear", "StatefulPartitionedCall/model_1/rescaling_1/Cast/x"], "attr": {"T": {"type": "DT_FLOAT"}}}, {"name": "StatefulPartitionedCall/model_1/rescaling_1/add", "op": "AddV2", "input": ["StatefulPartitionedCall/model_1/rescaling_1/mul", "StatefulPartitionedCall/model_1/rescaling_1/Cast_1"], "attr": {"T": {"type": "DT_FLOAT"}}}, {"name": "StatefulPartitionedCall/model_1/conv2d/Relu", "op": "_FusedConv2D", "input": ["StatefulPartitionedCall/model_1/rescaling_1/add", "StatefulPartitionedCall/model_1/conv2d/Conv2D/ReadVariableOp", "StatefulPartitionedCall/model_1/conv2d/BiasAdd/ReadVariableOp"], "device": "/device:CPU:0", "attr": {"dilations": {"list": {"i": ["1", "1", "1", "1"]}}, "data_format": {"s": "TkhXQw=="}, "use_cudnn_on_gpu": {"b": true}, "strides": {"list": {"i": ["1", "2", "2", "1"]}}, "explicit_paddings": {"list": {}}, "num_args": {"i": "1"}, "fused_ops": {"list": {"s": ["Qmlhc0FkZA==", "UmVsdQ=="]}}, "padding": {"s": "U0FNRQ=="}, "T": {"type": "DT_FLOAT"}, "epsilon": {"f": 0.0}}}, {"name": "StatefulPartitionedCall/model_1/max_pooling2d/MaxPool", "op": "MaxPool", "input": ["StatefulPartitionedCall/model_1/conv2d/Relu"], "attr": {"strides": {"list": {"i": ["1", "2", "2", "1"]}}, "padding": {"s": "U0FNRQ=="}, "explicit_paddings": {"list": {}}, "T": {"type": "DT_FLOAT"}, "data_format": {"s": "TkhXQw=="}, "ksize": {"list": {"i": ["1", "3", "3", "1"]}}}}, {"name": "StatefulPartitionedCall/model_1/conv2d_1/Relu", "op": "_FusedConv2D", "input": ["StatefulPartitionedCall/model_1/max_pooling2d/MaxPool", "StatefulPartitionedCall/model_1/conv2d_1/Conv2D/ReadVariableOp", "StatefulPartitionedCall/model_1/conv2d_1/BiasAdd/ReadVariableOp"], "device": "/device:CPU:0", "attr": {"fused_ops": {"list": {"s": ["Qmlhc0FkZA==", "UmVsdQ=="]}}, "strides": {"list": {"i": ["1", "1", "1", "1"]}}, "data_format": {"s": "TkhXQw=="}, "padding": {"s": "VkFMSUQ="}, "use_cudnn_on_gpu": {"b": true}, "explicit_paddings": {"list": {}}, "num_args": {"i": "1"}, "epsilon": {"f": 0.0}, "dilations": {"list": {"i": ["1", "1", "1", "1"]}}, "T": {"type": "DT_FLOAT"}}}, {"name": "StatefulPartitionedCall/model_1/conv2d_2/Relu", "op": "_FusedConv2D", "input": ["StatefulPartitionedCall/model_1/conv2d_1/Relu", "StatefulPartitionedCall/model_1/conv2d_2/Conv2D/ReadVariableOp", "StatefulPartitionedCall/model_1/conv2d_2/BiasAdd/ReadVariableOp"], "device": "/device:CPU:0", "attr": {"dilations": {"list": {"i": ["1", "1", "1", "1"]}}, "epsilon": {"f": 0.0}, "data_format": {"s": "TkhXQw=="}, "strides": {"list": {"i": ["1", "1", "1", "1"]}}, "padding": {"s": "U0FNRQ=="}, "T": {"type": "DT_FLOAT"}, "use_cudnn_on_gpu": {"b": true}, "fused_ops": {"list": {"s": ["Qmlhc0FkZA==", "UmVsdQ=="]}}, "num_args": {"i": "1"}, "explicit_paddings": {"list": {}}}}, {"name": "StatefulPartitionedCall/model_1/max_pooling2d_1/MaxPool", "op": "MaxPool", "input": ["StatefulPartitionedCall/model_1/conv2d_2/Relu"], "attr": {"explicit_paddings": {"list": {}}, "padding": {"s": "VkFMSUQ="}, "T": {"type": "DT_FLOAT"}, "strides": {"list": {"i": ["1", "2", "2", "1"]}}, "ksize": {"list": {"i": ["1", "3", "3", "1"]}}, "data_format": {"s": "TkhXQw=="}}}, {"name": "StatefulPartitionedCall/model_1/conv2d_3/Relu", "op": "_FusedConv2D", "input": ["StatefulPartitionedCall/model_1/max_pooling2d_1/MaxPool", "StatefulPartitionedCall/model_1/conv2d_3/Conv2D/ReadVariableOp", "StatefulPartitionedCall/model_1/conv2d_3/BiasAdd/ReadVariableOp"], "device": "/device:CPU:0", "attr": {"data_format": {"s": "TkhXQw=="}, "use_cudnn_on_gpu": {"b": true}, "fused_ops": {"list": {"s": ["Qmlhc0FkZA==", "UmVsdQ=="]}}, "strides": {"list": {"i": ["1", "1", "1", "1"]}}, "num_args": {"i": "1"}, "padding": {"s": "VkFMSUQ="}, "explicit_paddings": {"list": {}}, "dilations": {"list": {"i": ["1", "1", "1", "1"]}}, "T": {"type": "DT_FLOAT"}, "epsilon": {"f": 0.0}}}, {"name": "StatefulPartitionedCall/model_1/conv2d_4/Relu", "op": "_FusedConv2D", "input": ["StatefulPartitionedCall/model_1/max_pooling2d_1/MaxPool", "StatefulPartitionedCall/model_1/conv2d_4/Conv2D/ReadVariableOp", "StatefulPartitionedCall/model_1/conv2d_4/BiasAdd/ReadVariableOp"], "device": "/device:CPU:0", "attr": {"use_cudnn_on_gpu": {"b": true}, "num_args": {"i": "1"}, "padding": {"s": "VkFMSUQ="}, "T": {"type": "DT_FLOAT"}, "explicit_paddings": {"list": {}}, "dilations": {"list": {"i": ["1", "1", "1", "1"]}}, "fused_ops": {"list": {"s": ["Qmlhc0FkZA==", "UmVsdQ=="]}}, "epsilon": {"f": 0.0}, "data_format": {"s": "TkhXQw=="}, "strides": {"list": {"i": ["1", "1", "1", "1"]}}}}, {"name": "StatefulPartitionedCall/model_1/conv2d_6/Relu", "op": "_FusedConv2D", "input": ["StatefulPartitionedCall/model_1/max_pooling2d_1/MaxPool", "StatefulPartitionedCall/model_1/conv2d_6/Conv2D/ReadVariableOp", "StatefulPartitionedCall/model_1/conv2d_6/BiasAdd/ReadVariableOp"], "device": "/device:CPU:0", "attr": {"use_cudnn_on_gpu": {"b": true}, "T": {"type": "DT_FLOAT"}, "padding": {"s": "VkFMSUQ="}, "num_args": {"i": "1"}, "fused_ops": {"list": {"s": ["Qmlhc0FkZA==", "UmVsdQ=="]}}, "explicit_paddings": {"list": {}}, "dilations": {"list": {"i": ["1", "1", "1", "1"]}}, "epsilon": {"f": 0.0}, "strides": {"list": {"i": ["1", "1", "1", "1"]}}, "data_format": {"s": "TkhXQw=="}}}, {"name": "StatefulPartitionedCall/model_1/max_pooling2d_2/MaxPool", "op": "MaxPool", "input": ["StatefulPartitionedCall/model_1/max_pooling2d_1/MaxPool"], "attr": {"T": {"type": "DT_FLOAT"}, "ksize": {"list": {"i": ["1", "3", "3", "1"]}}, "strides": {"list": {"i": ["1", "1", "1", "1"]}}, "explicit_paddings": {"list": {}}, "data_format": {"s": "TkhXQw=="}, "padding": {"s": "U0FNRQ=="}}}, {"name": "StatefulPartitionedCall/model_1/conv2d_5/Relu", "op": "_FusedConv2D", "input": ["StatefulPartitionedCall/model_1/conv2d_4/Relu", "StatefulPartitionedCall/model_1/conv2d_5/Conv2D/ReadVariableOp", "StatefulPartitionedCall/model_1/conv2d_5/BiasAdd/ReadVariableOp"], "device": "/device:CPU:0", "attr": {"use_cudnn_on_gpu": {"b": true}, "T": {"type": "DT_FLOAT"}, "fused_ops": {"list": {"s": ["Qmlhc0FkZA==", "UmVsdQ=="]}}, "explicit_paddings": {"list": {}}, "num_args": {"i": "1"}, "epsilon": {"f": 0.0}, "dilations": {"list": {"i": ["1", "1", "1", "1"]}}, "strides": {"list": {"i": ["1", "1", "1", "1"]}}, "padding": {"s": "U0FNRQ=="}, "data_format": {"s": "TkhXQw=="}}}, {"name": "StatefulPartitionedCall/model_1/conv2d_7/Relu", "op": "_FusedConv2D", "input": ["StatefulPartitionedCall/model_1/conv2d_6/Relu", "StatefulPartitionedCall/model_1/conv2d_7/Conv2D/ReadVariableOp", "StatefulPartitionedCall/model_1/conv2d_7/BiasAdd/ReadVariableOp"], "device": "/device:CPU:0", "attr": {"num_args": {"i": "1"}, "epsilon": {"f": 0.0}, "fused_ops": {"list": {"s": ["Qmlhc0FkZA==", "UmVsdQ=="]}}, "dilations": {"list": {"i": ["1", "1", "1", "1"]}}, "padding": {"s": "U0FNRQ=="}, "data_format": {"s": "TkhXQw=="}, "T": {"type": "DT_FLOAT"}, "use_cudnn_on_gpu": {"b": true}, "strides": {"list": {"i": ["1", "1", "1", "1"]}}, "explicit_paddings": {"list": {}}}}, {"name": "StatefulPartitionedCall/model_1/conv2d_8/Relu", "op": "_FusedConv2D", "input": ["StatefulPartitionedCall/model_1/max_pooling2d_2/MaxPool", "StatefulPartitionedCall/model_1/conv2d_8/Conv2D/ReadVariableOp", "StatefulPartitionedCall/model_1/conv2d_8/BiasAdd/ReadVariableOp"], "device": "/device:CPU:0", "attr": {"dilations": {"list": {"i": ["1", "1", "1", "1"]}}, "fused_ops": {"list": {"s": ["Qmlhc0FkZA==", "UmVsdQ=="]}}, "epsilon": {"f": 0.0}, "T": {"type": "DT_FLOAT"}, "data_format": {"s": "TkhXQw=="}, "padding": {"s": "VkFMSUQ="}, "use_cudnn_on_gpu": {"b": true}, "num_args": {"i": "1"}, "strides": {"list": {"i": ["1", "1", "1", "1"]}}, "explicit_paddings": {"list": {}}}}, {"name": "StatefulPartitionedCall/model_1/concatenate/concat", "op": "ConcatV2", "input": ["StatefulPartitionedCall/model_1/conv2d_3/Relu", "StatefulPartitionedCall/model_1/conv2d_5/Relu", "StatefulPartitionedCall/model_1/conv2d_7/Relu", "StatefulPartitionedCall/model_1/conv2d_8/Relu", "StatefulPartitionedCall/model_1/concatenate/concat/axis"], "attr": {"N": {"i": "4"}, "Tidx": {"type": "DT_INT32"}, "T": {"type": "DT_FLOAT"}}}, {"name": "StatefulPartitionedCall/model_1/conv2d_9/Relu", "op": "_FusedConv2D", "input": ["StatefulPartitionedCall/model_1/concatenate/concat", "StatefulPartitionedCall/model_1/conv2d_9/Conv2D/ReadVariableOp", "StatefulPartitionedCall/model_1/conv2d_9/BiasAdd/ReadVariableOp"], "device": "/device:CPU:0", "attr": {"use_cudnn_on_gpu": {"b": true}, "T": {"type": "DT_FLOAT"}, "fused_ops": {"list": {"s": ["Qmlhc0FkZA==", "UmVsdQ=="]}}, "num_args": {"i": "1"}, "explicit_paddings": {"list": {}}, "dilations": {"list": {"i": ["1", "1", "1", "1"]}}, "epsilon": {"f": 0.0}, "data_format": {"s": "TkhXQw=="}, "strides": {"list": {"i": ["1", "1", "1", "1"]}}, "padding": {"s": "VkFMSUQ="}}}, {"name": "StatefulPartitionedCall/model_1/conv2d_10/Relu", "op": "_FusedConv2D", "input": ["StatefulPartitionedCall/model_1/concatenate/concat", "StatefulPartitionedCall/model_1/conv2d_10/Conv2D/ReadVariableOp", "StatefulPartitionedCall/model_1/conv2d_10/BiasAdd/ReadVariableOp"], "device": "/device:CPU:0", "attr": {"data_format": {"s": "TkhXQw=="}, "use_cudnn_on_gpu": {"b": true}, "fused_ops": {"list": {"s": ["Qmlhc0FkZA==", "UmVsdQ=="]}}, "strides": {"list": {"i": ["1", "1", "1", "1"]}}, "explicit_paddings": {"list": {}}, "padding": {"s": "VkFMSUQ="}, "num_args": {"i": "1"}, "epsilon": {"f": 0.0}, "dilations": {"list": {"i": ["1", "1", "1", "1"]}}, "T": {"type": "DT_FLOAT"}}}, {"name": "StatefulPartitionedCall/model_1/conv2d_12/Relu", "op": "_FusedConv2D", "input": ["StatefulPartitionedCall/model_1/concatenate/concat", "StatefulPartitionedCall/model_1/conv2d_12/Conv2D/ReadVariableOp", "StatefulPartitionedCall/model_1/conv2d_12/BiasAdd/ReadVariableOp"], "device": "/device:CPU:0", "attr": {"T": {"type": "DT_FLOAT"}, "use_cudnn_on_gpu": {"b": true}, "num_args": {"i": "1"}, "strides": {"list": {"i": ["1", "1", "1", "1"]}}, "explicit_paddings": {"list": {}}, "dilations": {"list": {"i": ["1", "1", "1", "1"]}}, "fused_ops": {"list": {"s": ["Qmlhc0FkZA==", "UmVsdQ=="]}}, "epsilon": {"f": 0.0}, "data_format": {"s": "TkhXQw=="}, "padding": {"s": "VkFMSUQ="}}}, {"name": "StatefulPartitionedCall/model_1/max_pooling2d_3/MaxPool", "op": "MaxPool", "input": ["StatefulPartitionedCall/model_1/concatenate/concat"], "attr": {"padding": {"s": "U0FNRQ=="}, "T": {"type": "DT_FLOAT"}, "data_format": {"s": "TkhXQw=="}, "explicit_paddings": {"list": {}}, "ksize": {"list": {"i": ["1", "3", "3", "1"]}}, "strides": {"list": {"i": ["1", "1", "1", "1"]}}}}, {"name": "StatefulPartitionedCall/model_1/conv2d_11/Relu", "op": "_FusedConv2D", "input": ["StatefulPartitionedCall/model_1/conv2d_10/Relu", "StatefulPartitionedCall/model_1/conv2d_11/Conv2D/ReadVariableOp", "StatefulPartitionedCall/model_1/conv2d_11/BiasAdd/ReadVariableOp"], "device": "/device:CPU:0", "attr": {"num_args": {"i": "1"}, "fused_ops": {"list": {"s": ["Qmlhc0FkZA==", "UmVsdQ=="]}}, "explicit_paddings": {"list": {}}, "T": {"type": "DT_FLOAT"}, "padding": {"s": "U0FNRQ=="}, "dilations": {"list": {"i": ["1", "1", "1", "1"]}}, "epsilon": {"f": 0.0}, "data_format": {"s": "TkhXQw=="}, "use_cudnn_on_gpu": {"b": true}, "strides": {"list": {"i": ["1", "1", "1", "1"]}}}}, {"name": "StatefulPartitionedCall/model_1/conv2d_13/Relu", "op": "_FusedConv2D", "input": ["StatefulPartitionedCall/model_1/conv2d_12/Relu", "StatefulPartitionedCall/model_1/conv2d_13/Conv2D/ReadVariableOp", "StatefulPartitionedCall/model_1/conv2d_13/BiasAdd/ReadVariableOp"], "device": "/device:CPU:0", "attr": {"padding": {"s": "U0FNRQ=="}, "data_format": {"s": "TkhXQw=="}, "use_cudnn_on_gpu": {"b": true}, "strides": {"list": {"i": ["1", "1", "1", "1"]}}, "num_args": {"i": "1"}, "explicit_paddings": {"list": {}}, "dilations": {"list": {"i": ["1", "1", "1", "1"]}}, "fused_ops": {"list": {"s": ["Qmlhc0FkZA==", "UmVsdQ=="]}}, "epsilon": {"f": 0.0}, "T": {"type": "DT_FLOAT"}}}, {"name": "StatefulPartitionedCall/model_1/conv2d_14/Relu", "op": "_FusedConv2D", "input": ["StatefulPartitionedCall/model_1/max_pooling2d_3/MaxPool", "StatefulPartitionedCall/model_1/conv2d_14/Conv2D/ReadVariableOp", "StatefulPartitionedCall/model_1/conv2d_14/BiasAdd/ReadVariableOp"], "device": "/device:CPU:0", "attr": {"fused_ops": {"list": {"s": ["Qmlhc0FkZA==", "UmVsdQ=="]}}, "num_args": {"i": "1"}, "strides": {"list": {"i": ["1", "1", "1", "1"]}}, "padding": {"s": "VkFMSUQ="}, "explicit_paddings": {"list": {}}, "epsilon": {"f": 0.0}, "dilations": {"list": {"i": ["1", "1", "1", "1"]}}, "T": {"type": "DT_FLOAT"}, "data_format": {"s": "TkhXQw=="}, "use_cudnn_on_gpu": {"b": true}}}, {"name": "StatefulPartitionedCall/model_1/concatenate_1/concat", "op": "ConcatV2", "input": ["StatefulPartitionedCall/model_1/conv2d_9/Relu", "StatefulPartitionedCall/model_1/conv2d_11/Relu", "StatefulPartitionedCall/model_1/conv2d_13/Relu", "StatefulPartitionedCall/model_1/conv2d_14/Relu", "StatefulPartitionedCall/model_1/concatenate_1/concat/axis"], "attr": {"T": {"type": "DT_FLOAT"}, "N": {"i": "4"}, "Tidx": {"type": "DT_INT32"}}}, {"name": "StatefulPartitionedCall/model_1/max_pooling2d_4/MaxPool", "op": "MaxPool", "input": ["StatefulPartitionedCall/model_1/concatenate_1/concat"], "attr": {"strides": {"list": {"i": ["1", "2", "2", "1"]}}, "T": {"type": "DT_FLOAT"}, "padding": {"s": "U0FNRQ=="}, "data_format": {"s": "TkhXQw=="}, "explicit_paddings": {"list": {}}, "ksize": {"list": {"i": ["1", "3", "3", "1"]}}}}, {"name": "StatefulPartitionedCall/model_1/conv2d_15/Relu", "op": "_FusedConv2D", "input": ["StatefulPartitionedCall/model_1/max_pooling2d_4/MaxPool", "StatefulPartitionedCall/model_1/conv2d_15/Conv2D/ReadVariableOp", "StatefulPartitionedCall/model_1/conv2d_15/BiasAdd/ReadVariableOp"], "device": "/device:CPU:0", "attr": {"fused_ops": {"list": {"s": ["Qmlhc0FkZA==", "UmVsdQ=="]}}, "use_cudnn_on_gpu": {"b": true}, "strides": {"list": {"i": ["1", "1", "1", "1"]}}, "num_args": {"i": "1"}, "T": {"type": "DT_FLOAT"}, "dilations": {"list": {"i": ["1", "1", "1", "1"]}}, "padding": {"s": "VkFMSUQ="}, "epsilon": {"f": 0.0}, "explicit_paddings": {"list": {}}, "data_format": {"s": "TkhXQw=="}}}, {"name": "StatefulPartitionedCall/model_1/conv2d_16/Relu", "op": "_FusedConv2D", "input": ["StatefulPartitionedCall/model_1/max_pooling2d_4/MaxPool", "StatefulPartitionedCall/model_1/conv2d_16/Conv2D/ReadVariableOp", "StatefulPartitionedCall/model_1/conv2d_16/BiasAdd/ReadVariableOp"], "device": "/device:CPU:0", "attr": {"dilations": {"list": {"i": ["1", "1", "1", "1"]}}, "fused_ops": {"list": {"s": ["Qmlhc0FkZA==", "UmVsdQ=="]}}, "strides": {"list": {"i": ["1", "1", "1", "1"]}}, "data_format": {"s": "TkhXQw=="}, "use_cudnn_on_gpu": {"b": true}, "T": {"type": "DT_FLOAT"}, "num_args": {"i": "1"}, "explicit_paddings": {"list": {}}, "padding": {"s": "VkFMSUQ="}, "epsilon": {"f": 0.0}}}, {"name": "StatefulPartitionedCall/model_1/conv2d_18/Relu", "op": "_FusedConv2D", "input": ["StatefulPartitionedCall/model_1/max_pooling2d_4/MaxPool", "StatefulPartitionedCall/model_1/conv2d_18/Conv2D/ReadVariableOp", "StatefulPartitionedCall/model_1/conv2d_18/BiasAdd/ReadVariableOp"], "device": "/device:CPU:0", "attr": {"padding": {"s": "VkFMSUQ="}, "dilations": {"list": {"i": ["1", "1", "1", "1"]}}, "fused_ops": {"list": {"s": ["Qmlhc0FkZA==", "UmVsdQ=="]}}, "strides": {"list": {"i": ["1", "1", "1", "1"]}}, "data_format": {"s": "TkhXQw=="}, "T": {"type": "DT_FLOAT"}, "use_cudnn_on_gpu": {"b": true}, "num_args": {"i": "1"}, "epsilon": {"f": 0.0}, "explicit_paddings": {"list": {}}}}, {"name": "StatefulPartitionedCall/model_1/max_pooling2d_5/MaxPool", "op": "MaxPool", "input": ["StatefulPartitionedCall/model_1/max_pooling2d_4/MaxPool"], "attr": {"padding": {"s": "U0FNRQ=="}, "T": {"type": "DT_FLOAT"}, "data_format": {"s": "TkhXQw=="}, "ksize": {"list": {"i": ["1", "3", "3", "1"]}}, "strides": {"list": {"i": ["1", "1", "1", "1"]}}, "explicit_paddings": {"list": {}}}}, {"name": "StatefulPartitionedCall/model_1/conv2d_17/Relu", "op": "_FusedConv2D", "input": ["StatefulPartitionedCall/model_1/conv2d_16/Relu", "StatefulPartitionedCall/model_1/conv2d_17/Conv2D/ReadVariableOp", "StatefulPartitionedCall/model_1/conv2d_17/BiasAdd/ReadVariableOp"], "device": "/device:CPU:0", "attr": {"dilations": {"list": {"i": ["1", "1", "1", "1"]}}, "explicit_paddings": {"list": {}}, "T": {"type": "DT_FLOAT"}, "data_format": {"s": "TkhXQw=="}, "strides": {"list": {"i": ["1", "1", "1", "1"]}}, "padding": {"s": "U0FNRQ=="}, "use_cudnn_on_gpu": {"b": true}, "fused_ops": {"list": {"s": ["Qmlhc0FkZA==", "UmVsdQ=="]}}, "epsilon": {"f": 0.0}, "num_args": {"i": "1"}}}, {"name": "StatefulPartitionedCall/model_1/conv2d_19/Relu", "op": "_FusedConv2D", "input": ["StatefulPartitionedCall/model_1/conv2d_18/Relu", "StatefulPartitionedCall/model_1/conv2d_19/Conv2D/ReadVariableOp", "StatefulPartitionedCall/model_1/conv2d_19/BiasAdd/ReadVariableOp"], "device": "/device:CPU:0", "attr": {"fused_ops": {"list": {"s": ["Qmlhc0FkZA==", "UmVsdQ=="]}}, "padding": {"s": "U0FNRQ=="}, "data_format": {"s": "TkhXQw=="}, "use_cudnn_on_gpu": {"b": true}, "strides": {"list": {"i": ["1", "1", "1", "1"]}}, "explicit_paddings": {"list": {}}, "epsilon": {"f": 0.0}, "num_args": {"i": "1"}, "T": {"type": "DT_FLOAT"}, "dilations": {"list": {"i": ["1", "1", "1", "1"]}}}}, {"name": "StatefulPartitionedCall/model_1/conv2d_20/Relu", "op": "_FusedConv2D", "input": ["StatefulPartitionedCall/model_1/max_pooling2d_5/MaxPool", "StatefulPartitionedCall/model_1/conv2d_20/Conv2D/ReadVariableOp", "StatefulPartitionedCall/model_1/conv2d_20/BiasAdd/ReadVariableOp"], "device": "/device:CPU:0", "attr": {"fused_ops": {"list": {"s": ["Qmlhc0FkZA==", "UmVsdQ=="]}}, "epsilon": {"f": 0.0}, "strides": {"list": {"i": ["1", "1", "1", "1"]}}, "data_format": {"s": "TkhXQw=="}, "explicit_paddings": {"list": {}}, "use_cudnn_on_gpu": {"b": true}, "T": {"type": "DT_FLOAT"}, "num_args": {"i": "1"}, "padding": {"s": "VkFMSUQ="}, "dilations": {"list": {"i": ["1", "1", "1", "1"]}}}}, {"name": "StatefulPartitionedCall/model_1/concatenate_2/concat", "op": "ConcatV2", "input": ["StatefulPartitionedCall/model_1/conv2d_15/Relu", "StatefulPartitionedCall/model_1/conv2d_17/Relu", "StatefulPartitionedCall/model_1/conv2d_19/Relu", "StatefulPartitionedCall/model_1/conv2d_20/Relu", "StatefulPartitionedCall/model_1/concatenate_2/concat/axis"], "attr": {"N": {"i": "4"}, "Tidx": {"type": "DT_INT32"}, "T": {"type": "DT_FLOAT"}}}, {"name": "StatefulPartitionedCall/model_1/max_pooling2d_6/MaxPool", "op": "MaxPool", "input": ["StatefulPartitionedCall/model_1/concatenate_2/concat"], "attr": {"data_format": {"s": "TkhXQw=="}, "padding": {"s": "U0FNRQ=="}, "ksize": {"list": {"i": ["1", "3", "3", "1"]}}, "strides": {"list": {"i": ["1", "1", "1", "1"]}}, "explicit_paddings": {"list": {}}, "T": {"type": "DT_FLOAT"}}}, {"name": "StatefulPartitionedCall/model_1/conv2d_21/Relu", "op": "_FusedConv2D", "input": ["StatefulPartitionedCall/model_1/concatenate_2/concat", "StatefulPartitionedCall/model_1/conv2d_21/Conv2D/ReadVariableOp", "StatefulPartitionedCall/model_1/conv2d_21/BiasAdd/ReadVariableOp"], "device": "/device:CPU:0", "attr": {"strides": {"list": {"i": ["1", "1", "1", "1"]}}, "explicit_paddings": {"list": {}}, "epsilon": {"f": 0.0}, "T": {"type": "DT_FLOAT"}, "fused_ops": {"list": {"s": ["Qmlhc0FkZA==", "UmVsdQ=="]}}, "dilations": {"list": {"i": ["1", "1", "1", "1"]}}, "data_format": {"s": "TkhXQw=="}, "padding": {"s": "VkFMSUQ="}, "use_cudnn_on_gpu": {"b": true}, "num_args": {"i": "1"}}}, {"name": "StatefulPartitionedCall/model_1/conv2d_22/Relu", "op": "_FusedConv2D", "input": ["StatefulPartitionedCall/model_1/concatenate_2/concat", "StatefulPartitionedCall/model_1/conv2d_22/Conv2D/ReadVariableOp", "StatefulPartitionedCall/model_1/conv2d_22/BiasAdd/ReadVariableOp"], "device": "/device:CPU:0", "attr": {"use_cudnn_on_gpu": {"b": true}, "fused_ops": {"list": {"s": ["Qmlhc0FkZA==", "UmVsdQ=="]}}, "T": {"type": "DT_FLOAT"}, "epsilon": {"f": 0.0}, "num_args": {"i": "1"}, "strides": {"list": {"i": ["1", "1", "1", "1"]}}, "explicit_paddings": {"list": {}}, "padding": {"s": "VkFMSUQ="}, "dilations": {"list": {"i": ["1", "1", "1", "1"]}}, "data_format": {"s": "TkhXQw=="}}}, {"name": "StatefulPartitionedCall/model_1/conv2d_24/Relu", "op": "_FusedConv2D", "input": ["StatefulPartitionedCall/model_1/concatenate_2/concat", "StatefulPartitionedCall/model_1/conv2d_24/Conv2D/ReadVariableOp", "StatefulPartitionedCall/model_1/conv2d_24/BiasAdd/ReadVariableOp"], "device": "/device:CPU:0", "attr": {"padding": {"s": "VkFMSUQ="}, "dilations": {"list": {"i": ["1", "1", "1", "1"]}}, "data_format": {"s": "TkhXQw=="}, "use_cudnn_on_gpu": {"b": true}, "T": {"type": "DT_FLOAT"}, "num_args": {"i": "1"}, "strides": {"list": {"i": ["1", "1", "1", "1"]}}, "explicit_paddings": {"list": {}}, "fused_ops": {"list": {"s": ["Qmlhc0FkZA==", "UmVsdQ=="]}}, "epsilon": {"f": 0.0}}}, {"name": "StatefulPartitionedCall/model_1/conv2d_26/Relu", "op": "_FusedConv2D", "input": ["StatefulPartitionedCall/model_1/max_pooling2d_6/MaxPool", "StatefulPartitionedCall/model_1/conv2d_26/Conv2D/ReadVariableOp", "StatefulPartitionedCall/model_1/conv2d_26/BiasAdd/ReadVariableOp"], "device": "/device:CPU:0", "attr": {"epsilon": {"f": 0.0}, "use_cudnn_on_gpu": {"b": true}, "fused_ops": {"list": {"s": ["Qmlhc0FkZA==", "UmVsdQ=="]}}, "strides": {"list": {"i": ["1", "1", "1", "1"]}}, "padding": {"s": "VkFMSUQ="}, "explicit_paddings": {"list": {}}, "T": {"type": "DT_FLOAT"}, "num_args": {"i": "1"}, "dilations": {"list": {"i": ["1", "1", "1", "1"]}}, "data_format": {"s": "TkhXQw=="}}}, {"name": "StatefulPartitionedCall/model_1/conv2d_23/Relu", "op": "_FusedConv2D", "input": ["StatefulPartitionedCall/model_1/conv2d_22/Relu", "StatefulPartitionedCall/model_1/conv2d_23/Conv2D/ReadVariableOp", "StatefulPartitionedCall/model_1/conv2d_23/BiasAdd/ReadVariableOp"], "device": "/device:CPU:0", "attr": {"T": {"type": "DT_FLOAT"}, "num_args": {"i": "1"}, "strides": {"list": {"i": ["1", "1", "1", "1"]}}, "fused_ops": {"list": {"s": ["Qmlhc0FkZA==", "UmVsdQ=="]}}, "explicit_paddings": {"list": {}}, "epsilon": {"f": 0.0}, "padding": {"s": "U0FNRQ=="}, "dilations": {"list": {"i": ["1", "1", "1", "1"]}}, "data_format": {"s": "TkhXQw=="}, "use_cudnn_on_gpu": {"b": true}}}, {"name": "StatefulPartitionedCall/model_1/conv2d_25/Relu", "op": "_FusedConv2D", "input": ["StatefulPartitionedCall/model_1/conv2d_24/Relu", "StatefulPartitionedCall/model_1/conv2d_25/Conv2D/ReadVariableOp", "StatefulPartitionedCall/model_1/conv2d_25/BiasAdd/ReadVariableOp"], "device": "/device:CPU:0", "attr": {"T": {"type": "DT_FLOAT"}, "use_cudnn_on_gpu": {"b": true}, "epsilon": {"f": 0.0}, "num_args": {"i": "1"}, "padding": {"s": "U0FNRQ=="}, "dilations": {"list": {"i": ["1", "1", "1", "1"]}}, "explicit_paddings": {"list": {}}, "fused_ops": {"list": {"s": ["Qmlhc0FkZA==", "UmVsdQ=="]}}, "data_format": {"s": "TkhXQw=="}, "strides": {"list": {"i": ["1", "1", "1", "1"]}}}}, {"name": "StatefulPartitionedCall/model_1/concatenate_3/concat", "op": "ConcatV2", "input": ["StatefulPartitionedCall/model_1/conv2d_21/Relu", "StatefulPartitionedCall/model_1/conv2d_23/Relu", "StatefulPartitionedCall/model_1/conv2d_25/Relu", "StatefulPartitionedCall/model_1/conv2d_26/Relu", "StatefulPartitionedCall/model_1/concatenate_3/concat/axis"], "attr": {"T": {"type": "DT_FLOAT"}, "N": {"i": "4"}, "Tidx": {"type": "DT_INT32"}}}, {"name": "StatefulPartitionedCall/model_1/conv2d_27/Relu", "op": "_FusedConv2D", "input": ["StatefulPartitionedCall/model_1/concatenate_3/concat", "StatefulPartitionedCall/model_1/conv2d_27/Conv2D/ReadVariableOp", "StatefulPartitionedCall/model_1/conv2d_27/BiasAdd/ReadVariableOp"], "device": "/device:CPU:0", "attr": {"use_cudnn_on_gpu": {"b": true}, "T": {"type": "DT_FLOAT"}, "num_args": {"i": "1"}, "padding": {"s": "VkFMSUQ="}, "dilations": {"list": {"i": ["1", "1", "1", "1"]}}, "fused_ops": {"list": {"s": ["Qmlhc0FkZA==", "UmVsdQ=="]}}, "epsilon": {"f": 0.0}, "strides": {"list": {"i": ["1", "1", "1", "1"]}}, "data_format": {"s": "TkhXQw=="}, "explicit_paddings": {"list": {}}}}, {"name": "StatefulPartitionedCall/model_1/conv2d_28/Relu", "op": "_FusedConv2D", "input": ["StatefulPartitionedCall/model_1/concatenate_3/concat", "StatefulPartitionedCall/model_1/conv2d_28/Conv2D/ReadVariableOp", "StatefulPartitionedCall/model_1/conv2d_28/BiasAdd/ReadVariableOp"], "device": "/device:CPU:0", "attr": {"strides": {"list": {"i": ["1", "1", "1", "1"]}}, "padding": {"s": "VkFMSUQ="}, "use_cudnn_on_gpu": {"b": true}, "fused_ops": {"list": {"s": ["Qmlhc0FkZA==", "UmVsdQ=="]}}, "epsilon": {"f": 0.0}, "num_args": {"i": "1"}, "explicit_paddings": {"list": {}}, "dilations": {"list": {"i": ["1", "1", "1", "1"]}}, "T": {"type": "DT_FLOAT"}, "data_format": {"s": "TkhXQw=="}}}, {"name": "StatefulPartitionedCall/model_1/conv2d_30/Relu", "op": "_FusedConv2D", "input": ["StatefulPartitionedCall/model_1/concatenate_3/concat", "StatefulPartitionedCall/model_1/conv2d_30/Conv2D/ReadVariableOp", "StatefulPartitionedCall/model_1/conv2d_30/BiasAdd/ReadVariableOp"], "device": "/device:CPU:0", "attr": {"data_format": {"s": "TkhXQw=="}, "use_cudnn_on_gpu": {"b": true}, "padding": {"s": "VkFMSUQ="}, "num_args": {"i": "1"}, "fused_ops": {"list": {"s": ["Qmlhc0FkZA==", "UmVsdQ=="]}}, "explicit_paddings": {"list": {}}, "epsilon": {"f": 0.0}, "dilations": {"list": {"i": ["1", "1", "1", "1"]}}, "T": {"type": "DT_FLOAT"}, "strides": {"list": {"i": ["1", "1", "1", "1"]}}}}, {"name": "StatefulPartitionedCall/model_1/max_pooling2d_7/MaxPool", "op": "MaxPool", "input": ["StatefulPartitionedCall/model_1/concatenate_3/concat"], "attr": {"padding": {"s": "U0FNRQ=="}, "data_format": {"s": "TkhXQw=="}, "ksize": {"list": {"i": ["1", "3", "3", "1"]}}, "strides": {"list": {"i": ["1", "1", "1", "1"]}}, "explicit_paddings": {"list": {}}, "T": {"type": "DT_FLOAT"}}}, {"name": "StatefulPartitionedCall/model_1/conv2d_29/Relu", "op": "_FusedConv2D", "input": ["StatefulPartitionedCall/model_1/conv2d_28/Relu", "StatefulPartitionedCall/model_1/conv2d_29/Conv2D/ReadVariableOp", "StatefulPartitionedCall/model_1/conv2d_29/BiasAdd/ReadVariableOp"], "device": "/device:CPU:0", "attr": {"epsilon": {"f": 0.0}, "fused_ops": {"list": {"s": ["Qmlhc0FkZA==", "UmVsdQ=="]}}, "strides": {"list": {"i": ["1", "1", "1", "1"]}}, "T": {"type": "DT_FLOAT"}, "dilations": {"list": {"i": ["1", "1", "1", "1"]}}, "padding": {"s": "U0FNRQ=="}, "data_format": {"s": "TkhXQw=="}, "use_cudnn_on_gpu": {"b": true}, "num_args": {"i": "1"}, "explicit_paddings": {"list": {}}}}, {"name": "StatefulPartitionedCall/model_1/conv2d_31/Relu", "op": "_FusedConv2D", "input": ["StatefulPartitionedCall/model_1/conv2d_30/Relu", "StatefulPartitionedCall/model_1/conv2d_31/Conv2D/ReadVariableOp", "StatefulPartitionedCall/model_1/conv2d_31/BiasAdd/ReadVariableOp"], "device": "/device:CPU:0", "attr": {"use_cudnn_on_gpu": {"b": true}, "fused_ops": {"list": {"s": ["Qmlhc0FkZA==", "UmVsdQ=="]}}, "T": {"type": "DT_FLOAT"}, "epsilon": {"f": 0.0}, "num_args": {"i": "1"}, "strides": {"list": {"i": ["1", "1", "1", "1"]}}, "padding": {"s": "U0FNRQ=="}, "explicit_paddings": {"list": {}}, "dilations": {"list": {"i": ["1", "1", "1", "1"]}}, "data_format": {"s": "TkhXQw=="}}}, {"name": "StatefulPartitionedCall/model_1/conv2d_32/Relu", "op": "_FusedConv2D", "input": ["StatefulPartitionedCall/model_1/max_pooling2d_7/MaxPool", "StatefulPartitionedCall/model_1/conv2d_32/Conv2D/ReadVariableOp", "StatefulPartitionedCall/model_1/conv2d_32/BiasAdd/ReadVariableOp"], "device": "/device:CPU:0", "attr": {"dilations": {"list": {"i": ["1", "1", "1", "1"]}}, "fused_ops": {"list": {"s": ["Qmlhc0FkZA==", "UmVsdQ=="]}}, "data_format": {"s": "TkhXQw=="}, "strides": {"list": {"i": ["1", "1", "1", "1"]}}, "T": {"type": "DT_FLOAT"}, "use_cudnn_on_gpu": {"b": true}, "epsilon": {"f": 0.0}, "num_args": {"i": "1"}, "padding": {"s": "VkFMSUQ="}, "explicit_paddings": {"list": {}}}}, {"name": "StatefulPartitionedCall/model_1/concatenate_4/concat", "op": "ConcatV2", "input": ["StatefulPartitionedCall/model_1/conv2d_27/Relu", "StatefulPartitionedCall/model_1/conv2d_29/Relu", "StatefulPartitionedCall/model_1/conv2d_31/Relu", "StatefulPartitionedCall/model_1/conv2d_32/Relu", "StatefulPartitionedCall/model_1/concatenate_4/concat/axis"], "attr": {"Tidx": {"type": "DT_INT32"}, "N": {"i": "4"}, "T": {"type": "DT_FLOAT"}}}, {"name": "StatefulPartitionedCall/model_1/conv2d_33/Relu", "op": "_FusedConv2D", "input": ["StatefulPartitionedCall/model_1/concatenate_4/concat", "StatefulPartitionedCall/model_1/conv2d_33/Conv2D/ReadVariableOp", "StatefulPartitionedCall/model_1/conv2d_33/BiasAdd/ReadVariableOp"], "device": "/device:CPU:0", "attr": {"epsilon": {"f": 0.0}, "num_args": {"i": "1"}, "T": {"type": "DT_FLOAT"}, "fused_ops": {"list": {"s": ["Qmlhc0FkZA==", "UmVsdQ=="]}}, "dilations": {"list": {"i": ["1", "1", "1", "1"]}}, "padding": {"s": "VkFMSUQ="}, "data_format": {"s": "TkhXQw=="}, "use_cudnn_on_gpu": {"b": true}, "strides": {"list": {"i": ["1", "1", "1", "1"]}}, "explicit_paddings": {"list": {}}}}, {"name": "StatefulPartitionedCall/model_1/conv2d_34/Relu", "op": "_FusedConv2D", "input": ["StatefulPartitionedCall/model_1/concatenate_4/concat", "StatefulPartitionedCall/model_1/conv2d_34/Conv2D/ReadVariableOp", "StatefulPartitionedCall/model_1/conv2d_34/BiasAdd/ReadVariableOp"], "device": "/device:CPU:0", "attr": {"fused_ops": {"list": {"s": ["Qmlhc0FkZA==", "UmVsdQ=="]}}, "explicit_paddings": {"list": {}}, "epsilon": {"f": 0.0}, "dilations": {"list": {"i": ["1", "1", "1", "1"]}}, "T": {"type": "DT_FLOAT"}, "strides": {"list": {"i": ["1", "1", "1", "1"]}}, "data_format": {"s": "TkhXQw=="}, "use_cudnn_on_gpu": {"b": true}, "padding": {"s": "VkFMSUQ="}, "num_args": {"i": "1"}}}, {"name": "StatefulPartitionedCall/model_1/conv2d_36/Relu", "op": "_FusedConv2D", "input": ["StatefulPartitionedCall/model_1/concatenate_4/concat", "StatefulPartitionedCall/model_1/conv2d_36/Conv2D/ReadVariableOp", "StatefulPartitionedCall/model_1/conv2d_36/BiasAdd/ReadVariableOp"], "device": "/device:CPU:0", "attr": {"num_args": {"i": "1"}, "explicit_paddings": {"list": {}}, "dilations": {"list": {"i": ["1", "1", "1", "1"]}}, "T": {"type": "DT_FLOAT"}, "data_format": {"s": "TkhXQw=="}, "strides": {"list": {"i": ["1", "1", "1", "1"]}}, "padding": {"s": "VkFMSUQ="}, "use_cudnn_on_gpu": {"b": true}, "fused_ops": {"list": {"s": ["Qmlhc0FkZA==", "UmVsdQ=="]}}, "epsilon": {"f": 0.0}}}, {"name": "StatefulPartitionedCall/model_1/max_pooling2d_8/MaxPool", "op": "MaxPool", "input": ["StatefulPartitionedCall/model_1/concatenate_4/concat"], "attr": {"ksize": {"list": {"i": ["1", "3", "3", "1"]}}, "padding": {"s": "U0FNRQ=="}, "data_format": {"s": "TkhXQw=="}, "strides": {"list": {"i": ["1", "1", "1", "1"]}}, "explicit_paddings": {"list": {}}, "T": {"type": "DT_FLOAT"}}}, {"name": "StatefulPartitionedCall/model_1/conv2d_35/Relu", "op": "_FusedConv2D", "input": ["StatefulPartitionedCall/model_1/conv2d_34/Relu", "StatefulPartitionedCall/model_1/conv2d_35/Conv2D/ReadVariableOp", "StatefulPartitionedCall/model_1/conv2d_35/BiasAdd/ReadVariableOp"], "device": "/device:CPU:0", "attr": {"epsilon": {"f": 0.0}, "num_args": {"i": "1"}, "strides": {"list": {"i": ["1", "1", "1", "1"]}}, "explicit_paddings": {"list": {}}, "dilations": {"list": {"i": ["1", "1", "1", "1"]}}, "fused_ops": {"list": {"s": ["Qmlhc0FkZA==", "UmVsdQ=="]}}, "T": {"type": "DT_FLOAT"}, "data_format": {"s": "TkhXQw=="}, "padding": {"s": "U0FNRQ=="}, "use_cudnn_on_gpu": {"b": true}}}, {"name": "StatefulPartitionedCall/model_1/conv2d_37/Relu", "op": "_FusedConv2D", "input": ["StatefulPartitionedCall/model_1/conv2d_36/Relu", "StatefulPartitionedCall/model_1/conv2d_37/Conv2D/ReadVariableOp", "StatefulPartitionedCall/model_1/conv2d_37/BiasAdd/ReadVariableOp"], "device": "/device:CPU:0", "attr": {"num_args": {"i": "1"}, "dilations": {"list": {"i": ["1", "1", "1", "1"]}}, "epsilon": {"f": 0.0}, "strides": {"list": {"i": ["1", "1", "1", "1"]}}, "data_format": {"s": "TkhXQw=="}, "padding": {"s": "U0FNRQ=="}, "T": {"type": "DT_FLOAT"}, "fused_ops": {"list": {"s": ["Qmlhc0FkZA==", "UmVsdQ=="]}}, "explicit_paddings": {"list": {}}, "use_cudnn_on_gpu": {"b": true}}}, {"name": "StatefulPartitionedCall/model_1/conv2d_38/Relu", "op": "_FusedConv2D", "input": ["StatefulPartitionedCall/model_1/max_pooling2d_8/MaxPool", "StatefulPartitionedCall/model_1/conv2d_38/Conv2D/ReadVariableOp", "StatefulPartitionedCall/model_1/conv2d_38/BiasAdd/ReadVariableOp"], "device": "/device:CPU:0", "attr": {"fused_ops": {"list": {"s": ["Qmlhc0FkZA==", "UmVsdQ=="]}}, "explicit_paddings": {"list": {}}, "num_args": {"i": "1"}, "dilations": {"list": {"i": ["1", "1", "1", "1"]}}, "strides": {"list": {"i": ["1", "1", "1", "1"]}}, "padding": {"s": "VkFMSUQ="}, "T": {"type": "DT_FLOAT"}, "data_format": {"s": "TkhXQw=="}, "epsilon": {"f": 0.0}, "use_cudnn_on_gpu": {"b": true}}}, {"name": "StatefulPartitionedCall/model_1/concatenate_5/concat", "op": "ConcatV2", "input": ["StatefulPartitionedCall/model_1/conv2d_33/Relu", "StatefulPartitionedCall/model_1/conv2d_35/Relu", "StatefulPartitionedCall/model_1/conv2d_37/Relu", "StatefulPartitionedCall/model_1/conv2d_38/Relu", "StatefulPartitionedCall/model_1/concatenate_5/concat/axis"], "attr": {"N": {"i": "4"}, "Tidx": {"type": "DT_INT32"}, "T": {"type": "DT_FLOAT"}}}, {"name": "StatefulPartitionedCall/model_1/conv2d_39/Relu", "op": "_FusedConv2D", "input": ["StatefulPartitionedCall/model_1/concatenate_5/concat", "StatefulPartitionedCall/model_1/conv2d_39/Conv2D/ReadVariableOp", "StatefulPartitionedCall/model_1/conv2d_39/BiasAdd/ReadVariableOp"], "device": "/device:CPU:0", "attr": {"padding": {"s": "VkFMSUQ="}, "dilations": {"list": {"i": ["1", "1", "1", "1"]}}, "data_format": {"s": "TkhXQw=="}, "use_cudnn_on_gpu": {"b": true}, "T": {"type": "DT_FLOAT"}, "num_args": {"i": "1"}, "strides": {"list": {"i": ["1", "1", "1", "1"]}}, "fused_ops": {"list": {"s": ["Qmlhc0FkZA==", "UmVsdQ=="]}}, "explicit_paddings": {"list": {}}, "epsilon": {"f": 0.0}}}, {"name": "StatefulPartitionedCall/model_1/conv2d_40/Relu", "op": "_FusedConv2D", "input": ["StatefulPartitionedCall/model_1/concatenate_5/concat", "StatefulPartitionedCall/model_1/conv2d_40/Conv2D/ReadVariableOp", "StatefulPartitionedCall/model_1/conv2d_40/BiasAdd/ReadVariableOp"], "device": "/device:CPU:0", "attr": {"dilations": {"list": {"i": ["1", "1", "1", "1"]}}, "fused_ops": {"list": {"s": ["Qmlhc0FkZA==", "UmVsdQ=="]}}, "data_format": {"s": "TkhXQw=="}, "strides": {"list": {"i": ["1", "1", "1", "1"]}}, "use_cudnn_on_gpu": {"b": true}, "T": {"type": "DT_FLOAT"}, "padding": {"s": "VkFMSUQ="}, "epsilon": {"f": 0.0}, "num_args": {"i": "1"}, "explicit_paddings": {"list": {}}}}, {"name": "StatefulPartitionedCall/model_1/conv2d_42/Relu", "op": "_FusedConv2D", "input": ["StatefulPartitionedCall/model_1/concatenate_5/concat", "StatefulPartitionedCall/model_1/conv2d_42/Conv2D/ReadVariableOp", "StatefulPartitionedCall/model_1/conv2d_42/BiasAdd/ReadVariableOp"], "device": "/device:CPU:0", "attr": {"explicit_paddings": {"list": {}}, "padding": {"s": "VkFMSUQ="}, "use_cudnn_on_gpu": {"b": true}, "dilations": {"list": {"i": ["1", "1", "1", "1"]}}, "T": {"type": "DT_FLOAT"}, "fused_ops": {"list": {"s": ["Qmlhc0FkZA==", "UmVsdQ=="]}}, "num_args": {"i": "1"}, "epsilon": {"f": 0.0}, "strides": {"list": {"i": ["1", "1", "1", "1"]}}, "data_format": {"s": "TkhXQw=="}}}, {"name": "StatefulPartitionedCall/model_1/max_pooling2d_9/MaxPool", "op": "MaxPool", "input": ["StatefulPartitionedCall/model_1/concatenate_5/concat"], "attr": {"T": {"type": "DT_FLOAT"}, "data_format": {"s": "TkhXQw=="}, "padding": {"s": "U0FNRQ=="}, "explicit_paddings": {"list": {}}, "ksize": {"list": {"i": ["1", "3", "3", "1"]}}, "strides": {"list": {"i": ["1", "1", "1", "1"]}}}}, {"name": "StatefulPartitionedCall/model_1/conv2d_41/Relu", "op": "_FusedConv2D", "input": ["StatefulPartitionedCall/model_1/conv2d_40/Relu", "StatefulPartitionedCall/model_1/conv2d_41/Conv2D/ReadVariableOp", "StatefulPartitionedCall/model_1/conv2d_41/BiasAdd/ReadVariableOp"], "device": "/device:CPU:0", "attr": {"data_format": {"s": "TkhXQw=="}, "use_cudnn_on_gpu": {"b": true}, "fused_ops": {"list": {"s": ["Qmlhc0FkZA==", "UmVsdQ=="]}}, "epsilon": {"f": 0.0}, "T": {"type": "DT_FLOAT"}, "num_args": {"i": "1"}, "strides": {"list": {"i": ["1", "1", "1", "1"]}}, "padding": {"s": "U0FNRQ=="}, "explicit_paddings": {"list": {}}, "dilations": {"list": {"i": ["1", "1", "1", "1"]}}}}, {"name": "StatefulPartitionedCall/model_1/conv2d_43/Relu", "op": "_FusedConv2D", "input": ["StatefulPartitionedCall/model_1/conv2d_42/Relu", "StatefulPartitionedCall/model_1/conv2d_43/Conv2D/ReadVariableOp", "StatefulPartitionedCall/model_1/conv2d_43/BiasAdd/ReadVariableOp"], "device": "/device:CPU:0", "attr": {"dilations": {"list": {"i": ["1", "1", "1", "1"]}}, "epsilon": {"f": 0.0}, "strides": {"list": {"i": ["1", "1", "1", "1"]}}, "T": {"type": "DT_FLOAT"}, "data_format": {"s": "TkhXQw=="}, "explicit_paddings": {"list": {}}, "padding": {"s": "U0FNRQ=="}, "use_cudnn_on_gpu": {"b": true}, "fused_ops": {"list": {"s": ["Qmlhc0FkZA==", "UmVsdQ=="]}}, "num_args": {"i": "1"}}}, {"name": "StatefulPartitionedCall/model_1/conv2d_44/Relu", "op": "_FusedConv2D", "input": ["StatefulPartitionedCall/model_1/max_pooling2d_9/MaxPool", "StatefulPartitionedCall/model_1/conv2d_44/Conv2D/ReadVariableOp", "StatefulPartitionedCall/model_1/conv2d_44/BiasAdd/ReadVariableOp"], "device": "/device:CPU:0", "attr": {"data_format": {"s": "TkhXQw=="}, "explicit_paddings": {"list": {}}, "padding": {"s": "VkFMSUQ="}, "fused_ops": {"list": {"s": ["Qmlhc0FkZA==", "UmVsdQ=="]}}, "use_cudnn_on_gpu": {"b": true}, "num_args": {"i": "1"}, "dilations": {"list": {"i": ["1", "1", "1", "1"]}}, "epsilon": {"f": 0.0}, "strides": {"list": {"i": ["1", "1", "1", "1"]}}, "T": {"type": "DT_FLOAT"}}}, {"name": "StatefulPartitionedCall/model_1/concatenate_6/concat", "op": "ConcatV2", "input": ["StatefulPartitionedCall/model_1/conv2d_39/Relu", "StatefulPartitionedCall/model_1/conv2d_41/Relu", "StatefulPartitionedCall/model_1/conv2d_43/Relu", "StatefulPartitionedCall/model_1/conv2d_44/Relu", "StatefulPartitionedCall/model_1/concatenate_6/concat/axis"], "attr": {"Tidx": {"type": "DT_INT32"}, "T": {"type": "DT_FLOAT"}, "N": {"i": "4"}}}, {"name": "StatefulPartitionedCall/model_1/max_pooling2d_10/MaxPool", "op": "MaxPool", "input": ["StatefulPartitionedCall/model_1/concatenate_6/concat"], "attr": {"padding": {"s": "U0FNRQ=="}, "T": {"type": "DT_FLOAT"}, "data_format": {"s": "TkhXQw=="}, "explicit_paddings": {"list": {}}, "ksize": {"list": {"i": ["1", "3", "3", "1"]}}, "strides": {"list": {"i": ["1", "2", "2", "1"]}}}}, {"name": "StatefulPartitionedCall/model_1/conv2d_48/Relu", "op": "_FusedConv2D", "input": ["StatefulPartitionedCall/model_1/max_pooling2d_10/MaxPool", "StatefulPartitionedCall/model_1/conv2d_48/Conv2D/ReadVariableOp", "StatefulPartitionedCall/model_1/conv2d_48/BiasAdd/ReadVariableOp"], "device": "/device:CPU:0", "attr": {"data_format": {"s": "TkhXQw=="}, "fused_ops": {"list": {"s": ["Qmlhc0FkZA==", "UmVsdQ=="]}}, "explicit_paddings": {"list": {}}, "use_cudnn_on_gpu": {"b": true}, "strides": {"list": {"i": ["1", "1", "1", "1"]}}, "dilations": {"list": {"i": ["1", "1", "1", "1"]}}, "T": {"type": "DT_FLOAT"}, "padding": {"s": "VkFMSUQ="}, "num_args": {"i": "1"}, "epsilon": {"f": 0.0}}}, {"name": "StatefulPartitionedCall/model_1/max_pooling2d_11/MaxPool", "op": "MaxPool", "input": ["StatefulPartitionedCall/model_1/max_pooling2d_10/MaxPool"], "attr": {"T": {"type": "DT_FLOAT"}, "padding": {"s": "U0FNRQ=="}, "data_format": {"s": "TkhXQw=="}, "explicit_paddings": {"list": {}}, "ksize": {"list": {"i": ["1", "3", "3", "1"]}}, "strides": {"list": {"i": ["1", "1", "1", "1"]}}}}, {"name": "StatefulPartitionedCall/model_1/conv2d_45/Relu", "op": "_FusedConv2D", "input": ["StatefulPartitionedCall/model_1/max_pooling2d_10/MaxPool", "StatefulPartitionedCall/model_1/conv2d_45/Conv2D/ReadVariableOp", "StatefulPartitionedCall/model_1/conv2d_45/BiasAdd/ReadVariableOp"], "device": "/device:CPU:0", "attr": {"use_cudnn_on_gpu": {"b": true}, "strides": {"list": {"i": ["1", "1", "1", "1"]}}, "num_args": {"i": "1"}, "explicit_paddings": {"list": {}}, "dilations": {"list": {"i": ["1", "1", "1", "1"]}}, "fused_ops": {"list": {"s": ["Qmlhc0FkZA==", "UmVsdQ=="]}}, "T": {"type": "DT_FLOAT"}, "padding": {"s": "VkFMSUQ="}, "data_format": {"s": "TkhXQw=="}, "epsilon": {"f": 0.0}}}, {"name": "StatefulPartitionedCall/model_1/conv2d_46/Relu", "op": "_FusedConv2D", "input": ["StatefulPartitionedCall/model_1/max_pooling2d_10/MaxPool", "StatefulPartitionedCall/model_1/conv2d_46/Conv2D/ReadVariableOp", "StatefulPartitionedCall/model_1/conv2d_46/BiasAdd/ReadVariableOp"], "device": "/device:CPU:0", "attr": {"padding": {"s": "VkFMSUQ="}, "data_format": {"s": "TkhXQw=="}, "explicit_paddings": {"list": {}}, "use_cudnn_on_gpu": {"b": true}, "strides": {"list": {"i": ["1", "1", "1", "1"]}}, "num_args": {"i": "1"}, "dilations": {"list": {"i": ["1", "1", "1", "1"]}}, "fused_ops": {"list": {"s": ["Qmlhc0FkZA==", "UmVsdQ=="]}}, "T": {"type": "DT_FLOAT"}, "epsilon": {"f": 0.0}}}, {"name": "StatefulPartitionedCall/model_1/conv2d_49/Relu", "op": "_FusedConv2D", "input": ["StatefulPartitionedCall/model_1/conv2d_48/Relu", "StatefulPartitionedCall/model_1/conv2d_49/Conv2D/ReadVariableOp", "StatefulPartitionedCall/model_1/conv2d_49/BiasAdd/ReadVariableOp"], "device": "/device:CPU:0", "attr": {"padding": {"s": "U0FNRQ=="}, "data_format": {"s": "TkhXQw=="}, "use_cudnn_on_gpu": {"b": true}, "num_args": {"i": "1"}, "explicit_paddings": {"list": {}}, "epsilon": {"f": 0.0}, "fused_ops": {"list": {"s": ["Qmlhc0FkZA==", "UmVsdQ=="]}}, "strides": {"list": {"i": ["1", "1", "1", "1"]}}, "dilations": {"list": {"i": ["1", "1", "1", "1"]}}, "T": {"type": "DT_FLOAT"}}}, {"name": "StatefulPartitionedCall/model_1/conv2d_50/Relu", "op": "_FusedConv2D", "input": ["StatefulPartitionedCall/model_1/max_pooling2d_11/MaxPool", "StatefulPartitionedCall/model_1/conv2d_50/Conv2D/ReadVariableOp", "StatefulPartitionedCall/model_1/conv2d_50/BiasAdd/ReadVariableOp"], "device": "/device:CPU:0", "attr": {"epsilon": {"f": 0.0}, "data_format": {"s": "TkhXQw=="}, "explicit_paddings": {"list": {}}, "fused_ops": {"list": {"s": ["Qmlhc0FkZA==", "UmVsdQ=="]}}, "use_cudnn_on_gpu": {"b": true}, "strides": {"list": {"i": ["1", "1", "1", "1"]}}, "num_args": {"i": "1"}, "T": {"type": "DT_FLOAT"}, "dilations": {"list": {"i": ["1", "1", "1", "1"]}}, "padding": {"s": "VkFMSUQ="}}}, {"name": "StatefulPartitionedCall/model_1/conv2d_47/Relu", "op": "_FusedConv2D", "input": ["StatefulPartitionedCall/model_1/conv2d_46/Relu", "StatefulPartitionedCall/model_1/conv2d_47/Conv2D/ReadVariableOp", "StatefulPartitionedCall/model_1/conv2d_47/BiasAdd/ReadVariableOp"], "device": "/device:CPU:0", "attr": {"num_args": {"i": "1"}, "epsilon": {"f": 0.0}, "strides": {"list": {"i": ["1", "1", "1", "1"]}}, "padding": {"s": "U0FNRQ=="}, "data_format": {"s": "TkhXQw=="}, "T": {"type": "DT_FLOAT"}, "fused_ops": {"list": {"s": ["Qmlhc0FkZA==", "UmVsdQ=="]}}, "explicit_paddings": {"list": {}}, "use_cudnn_on_gpu": {"b": true}, "dilations": {"list": {"i": ["1", "1", "1", "1"]}}}}, {"name": "StatefulPartitionedCall/model_1/concatenate_7/concat", "op": "ConcatV2", "input": ["StatefulPartitionedCall/model_1/conv2d_45/Relu", "StatefulPartitionedCall/model_1/conv2d_47/Relu", "StatefulPartitionedCall/model_1/conv2d_49/Relu", "StatefulPartitionedCall/model_1/conv2d_50/Relu", "StatefulPartitionedCall/model_1/concatenate_7/concat/axis"], "attr": {"N": {"i": "4"}, "T": {"type": "DT_FLOAT"}, "Tidx": {"type": "DT_INT32"}}}, {"name": "StatefulPartitionedCall/model_1/conv2d_54/Relu", "op": "_FusedConv2D", "input": ["StatefulPartitionedCall/model_1/concatenate_7/concat", "StatefulPartitionedCall/model_1/conv2d_54/Conv2D/ReadVariableOp", "StatefulPartitionedCall/model_1/conv2d_54/BiasAdd/ReadVariableOp"], "device": "/device:CPU:0", "attr": {"T": {"type": "DT_FLOAT"}, "padding": {"s": "VkFMSUQ="}, "data_format": {"s": "TkhXQw=="}, "epsilon": {"f": 0.0}, "use_cudnn_on_gpu": {"b": true}, "fused_ops": {"list": {"s": ["Qmlhc0FkZA==", "UmVsdQ=="]}}, "explicit_paddings": {"list": {}}, "num_args": {"i": "1"}, "dilations": {"list": {"i": ["1", "1", "1", "1"]}}, "strides": {"list": {"i": ["1", "1", "1", "1"]}}}}, {"name": "StatefulPartitionedCall/model_1/conv2d_51/Relu", "op": "_FusedConv2D", "input": ["StatefulPartitionedCall/model_1/concatenate_7/concat", "StatefulPartitionedCall/model_1/conv2d_51/Conv2D/ReadVariableOp", "StatefulPartitionedCall/model_1/conv2d_51/BiasAdd/ReadVariableOp"], "device": "/device:CPU:0", "attr": {"use_cudnn_on_gpu": {"b": true}, "strides": {"list": {"i": ["1", "1", "1", "1"]}}, "explicit_paddings": {"list": {}}, "T": {"type": "DT_FLOAT"}, "epsilon": {"f": 0.0}, "num_args": {"i": "1"}, "fused_ops": {"list": {"s": ["Qmlhc0FkZA==", "UmVsdQ=="]}}, "padding": {"s": "VkFMSUQ="}, "dilations": {"list": {"i": ["1", "1", "1", "1"]}}, "data_format": {"s": "TkhXQw=="}}}, {"name": "StatefulPartitionedCall/model_1/max_pooling2d_12/MaxPool", "op": "MaxPool", "input": ["StatefulPartitionedCall/model_1/concatenate_7/concat"], "attr": {"padding": {"s": "U0FNRQ=="}, "T": {"type": "DT_FLOAT"}, "explicit_paddings": {"list": {}}, "ksize": {"list": {"i": ["1", "3", "3", "1"]}}, "strides": {"list": {"i": ["1", "1", "1", "1"]}}, "data_format": {"s": "TkhXQw=="}}}, {"name": "StatefulPartitionedCall/model_1/conv2d_52/Relu", "op": "_FusedConv2D", "input": ["StatefulPartitionedCall/model_1/concatenate_7/concat", "StatefulPartitionedCall/model_1/conv2d_52/Conv2D/ReadVariableOp", "StatefulPartitionedCall/model_1/conv2d_52/BiasAdd/ReadVariableOp"], "device": "/device:CPU:0", "attr": {"epsilon": {"f": 0.0}, "strides": {"list": {"i": ["1", "1", "1", "1"]}}, "data_format": {"s": "TkhXQw=="}, "explicit_paddings": {"list": {}}, "use_cudnn_on_gpu": {"b": true}, "T": {"type": "DT_FLOAT"}, "padding": {"s": "VkFMSUQ="}, "dilations": {"list": {"i": ["1", "1", "1", "1"]}}, "fused_ops": {"list": {"s": ["Qmlhc0FkZA==", "UmVsdQ=="]}}, "num_args": {"i": "1"}}}, {"name": "StatefulPartitionedCall/model_1/conv2d_55/Relu", "op": "_FusedConv2D", "input": ["StatefulPartitionedCall/model_1/conv2d_54/Relu", "StatefulPartitionedCall/model_1/conv2d_55/Conv2D/ReadVariableOp", "StatefulPartitionedCall/model_1/conv2d_55/BiasAdd/ReadVariableOp"], "device": "/device:CPU:0", "attr": {"data_format": {"s": "TkhXQw=="}, "T": {"type": "DT_FLOAT"}, "use_cudnn_on_gpu": {"b": true}, "num_args": {"i": "1"}, "explicit_paddings": {"list": {}}, "epsilon": {"f": 0.0}, "padding": {"s": "U0FNRQ=="}, "strides": {"list": {"i": ["1", "1", "1", "1"]}}, "dilations": {"list": {"i": ["1", "1", "1", "1"]}}, "fused_ops": {"list": {"s": ["Qmlhc0FkZA==", "UmVsdQ=="]}}}}, {"name": "StatefulPartitionedCall/model_1/conv2d_56/Relu", "op": "_FusedConv2D", "input": ["StatefulPartitionedCall/model_1/max_pooling2d_12/MaxPool", "StatefulPartitionedCall/model_1/conv2d_56/Conv2D/ReadVariableOp", "StatefulPartitionedCall/model_1/conv2d_56/BiasAdd/ReadVariableOp"], "device": "/device:CPU:0", "attr": {"strides": {"list": {"i": ["1", "1", "1", "1"]}}, "dilations": {"list": {"i": ["1", "1", "1", "1"]}}, "fused_ops": {"list": {"s": ["Qmlhc0FkZA==", "UmVsdQ=="]}}, "data_format": {"s": "TkhXQw=="}, "use_cudnn_on_gpu": {"b": true}, "T": {"type": "DT_FLOAT"}, "num_args": {"i": "1"}, "explicit_paddings": {"list": {}}, "epsilon": {"f": 0.0}, "padding": {"s": "VkFMSUQ="}}}, {"name": "StatefulPartitionedCall/model_1/conv2d_53/Relu", "op": "_FusedConv2D", "input": ["StatefulPartitionedCall/model_1/conv2d_52/Relu", "StatefulPartitionedCall/model_1/conv2d_53/Conv2D/ReadVariableOp", "StatefulPartitionedCall/model_1/conv2d_53/BiasAdd/ReadVariableOp"], "device": "/device:CPU:0", "attr": {"dilations": {"list": {"i": ["1", "1", "1", "1"]}}, "data_format": {"s": "TkhXQw=="}, "epsilon": {"f": 0.0}, "use_cudnn_on_gpu": {"b": true}, "strides": {"list": {"i": ["1", "1", "1", "1"]}}, "fused_ops": {"list": {"s": ["Qmlhc0FkZA==", "UmVsdQ=="]}}, "T": {"type": "DT_FLOAT"}, "num_args": {"i": "1"}, "explicit_paddings": {"list": {}}, "padding": {"s": "U0FNRQ=="}}}, {"name": "StatefulPartitionedCall/model_1/concatenate_8/concat", "op": "ConcatV2", "input": ["StatefulPartitionedCall/model_1/conv2d_51/Relu", "StatefulPartitionedCall/model_1/conv2d_53/Relu", "StatefulPartitionedCall/model_1/conv2d_55/Relu", "StatefulPartitionedCall/model_1/conv2d_56/Relu", "StatefulPartitionedCall/model_1/concatenate_8/concat/axis"], "attr": {"N": {"i": "4"}, "T": {"type": "DT_FLOAT"}, "Tidx": {"type": "DT_INT32"}}}, {"name": "StatefulPartitionedCall/model_1/average_pooling2d/AvgPool", "op": "AvgPool", "input": ["StatefulPartitionedCall/model_1/concatenate_8/concat"], "attr": {"ksize": {"list": {"i": ["1", "7", "7", "1"]}}, "T": {"type": "DT_FLOAT"}, "strides": {"list": {"i": ["1", "1", "1", "1"]}}, "padding": {"s": "VkFMSUQ="}, "data_format": {"s": "TkhXQw=="}}}, {"name": "StatefulPartitionedCall/model_1/flatten/Reshape", "op": "Reshape", "input": ["StatefulPartitionedCall/model_1/average_pooling2d/AvgPool", "StatefulPartitionedCall/model_1/flatten/Const"], "attr": {"Tshape": {"type": "DT_INT32"}, "T": {"type": "DT_FLOAT"}}}, {"name": "StatefulPartitionedCall/model_1/dense_1/BiasAdd", "op": "_FusedMatMul", "input": ["StatefulPartitionedCall/model_1/flatten/Reshape", "StatefulPartitionedCall/model_1/dense_1/MatMul/ReadVariableOp", "StatefulPartitionedCall/model_1/dense_1/BiasAdd/ReadVariableOp"], "device": "/device:CPU:0", "attr": {"transpose_a": {"b": false}, "num_args": {"i": "1"}, "epsilon": {"f": 0.0}, "fused_ops": {"list": {"s": ["Qmlhc0FkZA=="]}}, "T": {"type": "DT_FLOAT"}, "transpose_b": {"b": false}}}, {"name": "StatefulPartitionedCall/model_1/dense_1/Softmax", "op": "Softmax", "input": ["StatefulPartitionedCall/model_1/dense_1/BiasAdd"], "attr": {"T": {"type": "DT_FLOAT"}}}, {"name": "Identity", "op": "Identity", "input": ["StatefulPartitionedCall/model_1/dense_1/Softmax"], "attr": {"T": {"type": "DT_FLOAT"}}}], "library": {}, "versions": {"producer": 1087}}, "weightsManifest": [{"paths": ["group1-shard1of6.bin", "group1-shard2of6.bin", "group1-shard3of6.bin", "group1-shard4of6.bin", "group1-shard5of6.bin", "group1-shard6of6.bin"], "weights": [{"name": "StatefulPartitionedCall/model_1/conv2d_51/Conv2D/ReadVariableOp", "shape": [1, 1, 832, 384], "dtype": "float32"}, {"name": "StatefulPartitionedCall/model_1/conv2d_51/BiasAdd/ReadVariableOp", "shape": [384], "dtype": "float32"}, {"name": "StatefulPartitionedCall/model_1/conv2d_52/Conv2D/ReadVariableOp", "shape": [1, 1, 832, 192], "dtype": "float32"}, {"name": "StatefulPartitionedCall/model_1/conv2d_52/BiasAdd/ReadVariableOp", "shape": [192], "dtype": "float32"}, {"name": "StatefulPartitionedCall/model_1/conv2d_53/Conv2D/ReadVariableOp", "shape": [3, 3, 192, 384], "dtype": "float32"}, {"name": "StatefulPartitionedCall/model_1/conv2d_53/BiasAdd/ReadVariableOp", "shape": [384], "dtype": "float32"}, {"name": "StatefulPartitionedCall/model_1/conv2d_54/Conv2D/ReadVariableOp", "shape": [1, 1, 832, 48], "dtype": "float32"}, {"name": "StatefulPartitionedCall/model_1/conv2d_54/BiasAdd/ReadVariableOp", "shape": [48], "dtype": "float32"}, {"name": "StatefulPartitionedCall/model_1/conv2d_55/Conv2D/ReadVariableOp", "shape": [5, 5, 48, 128], "dtype": "float32"}, {"name": "StatefulPartitionedCall/model_1/conv2d_55/BiasAdd/ReadVariableOp", "shape": [128], "dtype": "float32"}, {"name": "StatefulPartitionedCall/model_1/conv2d_45/Conv2D/ReadVariableOp", "shape": [1, 1, 832, 256], "dtype": "float32"}, {"name": "StatefulPartitionedCall/model_1/conv2d_45/BiasAdd/ReadVariableOp", "shape": [256], "dtype": "float32"}, {"name": "StatefulPartitionedCall/model_1/conv2d_46/Conv2D/ReadVariableOp", "shape": [1, 1, 832, 160], "dtype": "float32"}, {"name": "StatefulPartitionedCall/model_1/conv2d_46/BiasAdd/ReadVariableOp", "shape": [160], "dtype": "float32"}, {"name": "StatefulPartitionedCall/model_1/conv2d_47/Conv2D/ReadVariableOp", "shape": [3, 3, 160, 320], "dtype": "float32"}, {"name": "StatefulPartitionedCall/model_1/conv2d_47/BiasAdd/ReadVariableOp", "shape": [320], "dtype": "float32"}, {"name": "StatefulPartitionedCall/model_1/conv2d_48/Conv2D/ReadVariableOp", "shape": [1, 1, 832, 32], "dtype": "float32"}, {"name": "StatefulPartitionedCall/model_1/conv2d_48/BiasAdd/ReadVariableOp", "shape": [32], "dtype": "float32"}, {"name": "StatefulPartitionedCall/model_1/conv2d_49/Conv2D/ReadVariableOp", "shape": [5, 5, 32, 128], "dtype": "float32"}, {"name": "StatefulPartitionedCall/model_1/conv2d_49/BiasAdd/ReadVariableOp", "shape": [128], "dtype": "float32"}, {"name": "StatefulPartitionedCall/model_1/conv2d_39/Conv2D/ReadVariableOp", "shape": [1, 1, 528, 256], "dtype": "float32"}, {"name": "StatefulPartitionedCall/model_1/conv2d_39/BiasAdd/ReadVariableOp", "shape": [256], "dtype": "float32"}, {"name": "StatefulPartitionedCall/model_1/conv2d_40/Conv2D/ReadVariableOp", "shape": [1, 1, 528, 160], "dtype": "float32"}, {"name": "StatefulPartitionedCall/model_1/conv2d_40/BiasAdd/ReadVariableOp", "shape": [160], "dtype": "float32"}, {"name": "StatefulPartitionedCall/model_1/conv2d_41/Conv2D/ReadVariableOp", "shape": [3, 3, 160, 320], "dtype": "float32"}, {"name": "StatefulPartitionedCall/model_1/conv2d_41/BiasAdd/ReadVariableOp", "shape": [320], "dtype": "float32"}, {"name": "StatefulPartitionedCall/model_1/conv2d_42/Conv2D/ReadVariableOp", "shape": [1, 1, 528, 32], "dtype": "float32"}, {"name": "StatefulPartitionedCall/model_1/conv2d_42/BiasAdd/ReadVariableOp", "shape": [32], "dtype": "float32"}, {"name": "StatefulPartitionedCall/model_1/conv2d_43/Conv2D/ReadVariableOp", "shape": [5, 5, 32, 128], "dtype": "float32"}, {"name": "StatefulPartitionedCall/model_1/conv2d_43/BiasAdd/ReadVariableOp", "shape": [128], "dtype": "float32"}, {"name": "StatefulPartitionedCall/model_1/conv2d_33/Conv2D/ReadVariableOp", "shape": [1, 1, 512, 112], "dtype": "float32"}, {"name": "StatefulPartitionedCall/model_1/conv2d_33/BiasAdd/ReadVariableOp", "shape": [112], "dtype": "float32"}, {"name": "StatefulPartitionedCall/model_1/conv2d_34/Conv2D/ReadVariableOp", "shape": [1, 1, 512, 144], "dtype": "float32"}, {"name": "StatefulPartitionedCall/model_1/conv2d_34/BiasAdd/ReadVariableOp", "shape": [144], "dtype": "float32"}, {"name": "StatefulPartitionedCall/model_1/conv2d_35/Conv2D/ReadVariableOp", "shape": [3, 3, 144, 288], "dtype": "float32"}, {"name": "StatefulPartitionedCall/model_1/conv2d_35/BiasAdd/ReadVariableOp", "shape": [288], "dtype": "float32"}, {"name": "StatefulPartitionedCall/model_1/conv2d_36/Conv2D/ReadVariableOp", "shape": [1, 1, 512, 32], "dtype": "float32"}, {"name": "StatefulPartitionedCall/model_1/conv2d_36/BiasAdd/ReadVariableOp", "shape": [32], "dtype": "float32"}, {"name": "StatefulPartitionedCall/model_1/conv2d_37/Conv2D/ReadVariableOp", "shape": [5, 5, 32, 64], "dtype": "float32"}, {"name": "StatefulPartitionedCall/model_1/conv2d_37/BiasAdd/ReadVariableOp", "shape": [64], "dtype": "float32"}, {"name": "StatefulPartitionedCall/model_1/conv2d_27/Conv2D/ReadVariableOp", "shape": [1, 1, 512, 128], "dtype": "float32"}, {"name": "StatefulPartitionedCall/model_1/conv2d_27/BiasAdd/ReadVariableOp", "shape": [128], "dtype": "float32"}, {"name": "StatefulPartitionedCall/model_1/conv2d_28/Conv2D/ReadVariableOp", "shape": [1, 1, 512, 128], "dtype": "float32"}, {"name": "StatefulPartitionedCall/model_1/conv2d_28/BiasAdd/ReadVariableOp", "shape": [128], "dtype": "float32"}, {"name": "StatefulPartitionedCall/model_1/conv2d_29/Conv2D/ReadVariableOp", "shape": [3, 3, 128, 256], "dtype": "float32"}, {"name": "StatefulPartitionedCall/model_1/conv2d_29/BiasAdd/ReadVariableOp", "shape": [256], "dtype": "float32"}, {"name": "StatefulPartitionedCall/model_1/conv2d_30/Conv2D/ReadVariableOp", "shape": [1, 1, 512, 24], "dtype": "float32"}, {"name": "StatefulPartitionedCall/model_1/conv2d_30/BiasAdd/ReadVariableOp", "shape": [24], "dtype": "float32"}, {"name": "StatefulPartitionedCall/model_1/conv2d_31/Conv2D/ReadVariableOp", "shape": [5, 5, 24, 64], "dtype": "float32"}, {"name": "StatefulPartitionedCall/model_1/conv2d_31/BiasAdd/ReadVariableOp", "shape": [64], "dtype": "float32"}, {"name": "StatefulPartitionedCall/model_1/conv2d_21/Conv2D/ReadVariableOp", "shape": [1, 1, 512, 160], "dtype": "float32"}, {"name": "StatefulPartitionedCall/model_1/conv2d_21/BiasAdd/ReadVariableOp", "shape": [160], "dtype": "float32"}, {"name": "StatefulPartitionedCall/model_1/conv2d_22/Conv2D/ReadVariableOp", "shape": [1, 1, 512, 112], "dtype": "float32"}, {"name": "StatefulPartitionedCall/model_1/conv2d_22/BiasAdd/ReadVariableOp", "shape": [112], "dtype": "float32"}, {"name": "StatefulPartitionedCall/model_1/conv2d_23/Conv2D/ReadVariableOp", "shape": [3, 3, 112, 224], "dtype": "float32"}, {"name": "StatefulPartitionedCall/model_1/conv2d_23/BiasAdd/ReadVariableOp", "shape": [224], "dtype": "float32"}, {"name": "StatefulPartitionedCall/model_1/conv2d_24/Conv2D/ReadVariableOp", "shape": [1, 1, 512, 24], "dtype": "float32"}, {"name": "StatefulPartitionedCall/model_1/conv2d_24/BiasAdd/ReadVariableOp", "shape": [24], "dtype": "float32"}, {"name": "StatefulPartitionedCall/model_1/conv2d_25/Conv2D/ReadVariableOp", "shape": [5, 5, 24, 64], "dtype": "float32"}, {"name": "StatefulPartitionedCall/model_1/conv2d_25/BiasAdd/ReadVariableOp", "shape": [64], "dtype": "float32"}, {"name": "StatefulPartitionedCall/model_1/conv2d_15/Conv2D/ReadVariableOp", "shape": [1, 1, 480, 192], "dtype": "float32"}, {"name": "StatefulPartitionedCall/model_1/conv2d_15/BiasAdd/ReadVariableOp", "shape": [192], "dtype": "float32"}, {"name": "StatefulPartitionedCall/model_1/conv2d_16/Conv2D/ReadVariableOp", "shape": [1, 1, 480, 96], "dtype": "float32"}, {"name": "StatefulPartitionedCall/model_1/conv2d_16/BiasAdd/ReadVariableOp", "shape": [96], "dtype": "float32"}, {"name": "StatefulPartitionedCall/model_1/conv2d_17/Conv2D/ReadVariableOp", "shape": [3, 3, 96, 208], "dtype": "float32"}, {"name": "StatefulPartitionedCall/model_1/conv2d_17/BiasAdd/ReadVariableOp", "shape": [208], "dtype": "float32"}, {"name": "StatefulPartitionedCall/model_1/conv2d_18/Conv2D/ReadVariableOp", "shape": [1, 1, 480, 16], "dtype": "float32"}, {"name": "StatefulPartitionedCall/model_1/conv2d_18/BiasAdd/ReadVariableOp", "shape": [16], "dtype": "float32"}, {"name": "StatefulPartitionedCall/model_1/conv2d_19/Conv2D/ReadVariableOp", "shape": [5, 5, 16, 48], "dtype": "float32"}, {"name": "StatefulPartitionedCall/model_1/conv2d_19/BiasAdd/ReadVariableOp", "shape": [48], "dtype": "float32"}, {"name": "StatefulPartitionedCall/model_1/conv2d_9/Conv2D/ReadVariableOp", "shape": [1, 1, 256, 128], "dtype": "float32"}, {"name": "StatefulPartitionedCall/model_1/conv2d_9/BiasAdd/ReadVariableOp", "shape": [128], "dtype": "float32"}, {"name": "StatefulPartitionedCall/model_1/conv2d_10/Conv2D/ReadVariableOp", "shape": [1, 1, 256, 128], "dtype": "float32"}, {"name": "StatefulPartitionedCall/model_1/conv2d_10/BiasAdd/ReadVariableOp", "shape": [128], "dtype": "float32"}, {"name": "StatefulPartitionedCall/model_1/conv2d_11/Conv2D/ReadVariableOp", "shape": [3, 3, 128, 192], "dtype": "float32"}, {"name": "StatefulPartitionedCall/model_1/conv2d_11/BiasAdd/ReadVariableOp", "shape": [192], "dtype": "float32"}, {"name": "StatefulPartitionedCall/model_1/conv2d_12/Conv2D/ReadVariableOp", "shape": [1, 1, 256, 32], "dtype": "float32"}, {"name": "StatefulPartitionedCall/model_1/conv2d_12/BiasAdd/ReadVariableOp", "shape": [32], "dtype": "float32"}, {"name": "StatefulPartitionedCall/model_1/conv2d_13/Conv2D/ReadVariableOp", "shape": [5, 5, 32, 96], "dtype": "float32"}, {"name": "StatefulPartitionedCall/model_1/conv2d_13/BiasAdd/ReadVariableOp", "shape": [96], "dtype": "float32"}, {"name": "StatefulPartitionedCall/model_1/conv2d_3/Conv2D/ReadVariableOp", "shape": [1, 1, 192, 64], "dtype": "float32"}, {"name": "StatefulPartitionedCall/model_1/conv2d_3/BiasAdd/ReadVariableOp", "shape": [64], "dtype": "float32"}, {"name": "StatefulPartitionedCall/model_1/conv2d_4/Conv2D/ReadVariableOp", "shape": [1, 1, 192, 96], "dtype": "float32"}, {"name": "StatefulPartitionedCall/model_1/conv2d_4/BiasAdd/ReadVariableOp", "shape": [96], "dtype": "float32"}, {"name": "StatefulPartitionedCall/model_1/conv2d_5/Conv2D/ReadVariableOp", "shape": [3, 3, 96, 128], "dtype": "float32"}, {"name": "StatefulPartitionedCall/model_1/conv2d_5/BiasAdd/ReadVariableOp", "shape": [128], "dtype": "float32"}, {"name": "StatefulPartitionedCall/model_1/conv2d_6/Conv2D/ReadVariableOp", "shape": [1, 1, 192, 16], "dtype": "float32"}, {"name": "StatefulPartitionedCall/model_1/conv2d_6/BiasAdd/ReadVariableOp", "shape": [16], "dtype": "float32"}, {"name": "StatefulPartitionedCall/model_1/conv2d_7/Conv2D/ReadVariableOp", "shape": [5, 5, 16, 32], "dtype": "float32"}, {"name": "StatefulPartitionedCall/model_1/conv2d_7/BiasAdd/ReadVariableOp", "shape": [32], "dtype": "float32"}, {"name": "StatefulPartitionedCall/model_1/random_crop/stack/0", "shape": [], "dtype": "int32"}, {"name": "ConstantFolding/StatefulPartitionedCall/model_1/random_crop/truediv_2_recip", "shape": [], "dtype": "float32"}, {"name": "ConstantFolding/StatefulPartitionedCall/model_1/random_crop/truediv_3_recip", "shape": [], "dtype": "float32"}, {"name": "StatefulPartitionedCall/model_1/random_crop/stack/3", "shape": [], "dtype": "int32"}, {"name": "StatefulPartitionedCall/model_1/random_crop/stack_1/0", "shape": [], "dtype": "int32"}, {"name": "StatefulPartitionedCall/model_1/random_crop/mul/y", "shape": [], "dtype": "int32"}, {"name": "ConstantFolding/StatefulPartitionedCall/model_1/random_crop/truediv_recip", "shape": [], "dtype": "float32"}, {"name": "StatefulPartitionedCall/model_1/random_crop/strided_slice_1/stack", "shape": [1], "dtype": "int32"}, {"name": "StatefulPartitionedCall/model_1/random_crop/strided_slice_1/stack_1", "shape": [1], "dtype": "int32"}, {"name": "StatefulPartitionedCall/model_1/random_crop/strided_slice_1/stack_2", "shape": [1], "dtype": "int32"}, {"name": "StatefulPartitionedCall/model_1/random_crop/strided_slice/stack", "shape": [1], "dtype": "int32"}, {"name": "StatefulPartitionedCall/model_1/random_crop/strided_slice/stack_1", "shape": [1], "dtype": "int32"}, {"name": "StatefulPartitionedCall/model_1/random_crop/strided_slice/stack_2", "shape": [1], "dtype": "int32"}, {"name": "StatefulPartitionedCall/model_1/random_crop/mul_1/y", "shape": [], "dtype": "int32"}, {"name": "ConstantFolding/StatefulPartitionedCall/model_1/random_crop/truediv_1_recip", "shape": [], "dtype": "float32"}, {"name": "StatefulPartitionedCall/model_1/random_crop/stack_1/3", "shape": [], "dtype": "int32"}, {"name": "StatefulPartitionedCall/model_1/random_crop/resize/size", "shape": [2], "dtype": "int32"}, {"name": "StatefulPartitionedCall/model_1/resizing/resize/size", "shape": [2], "dtype": "int32"}, {"name": "StatefulPartitionedCall/model_1/resizing_1/resize/size", "shape": [2], "dtype": "int32"}, {"name": "StatefulPartitionedCall/model_1/rescaling_1/Cast/x", "shape": [], "dtype": "float32"}, {"name": "StatefulPartitionedCall/model_1/rescaling_1/Cast_1", "shape": [], "dtype": "float32"}, {"name": "StatefulPartitionedCall/model_1/conv2d/Conv2D/ReadVariableOp", "shape": [7, 7, 3, 64], "dtype": "float32"}, {"name": "StatefulPartitionedCall/model_1/conv2d/BiasAdd/ReadVariableOp", "shape": [64], "dtype": "float32"}, {"name": "StatefulPartitionedCall/model_1/conv2d_1/Conv2D/ReadVariableOp", "shape": [1, 1, 64, 64], "dtype": "float32"}, {"name": "StatefulPartitionedCall/model_1/conv2d_1/BiasAdd/ReadVariableOp", "shape": [64], "dtype": "float32"}, {"name": "StatefulPartitionedCall/model_1/conv2d_2/Conv2D/ReadVariableOp", "shape": [3, 3, 64, 192], "dtype": "float32"}, {"name": "StatefulPartitionedCall/model_1/conv2d_2/BiasAdd/ReadVariableOp", "shape": [192], "dtype": "float32"}, {"name": "StatefulPartitionedCall/model_1/conv2d_8/Conv2D/ReadVariableOp", "shape": [1, 1, 192, 32], "dtype": "float32"}, {"name": "StatefulPartitionedCall/model_1/conv2d_8/BiasAdd/ReadVariableOp", "shape": [32], "dtype": "float32"}, {"name": "StatefulPartitionedCall/model_1/concatenate/concat/axis", "shape": [], "dtype": "int32"}, {"name": "StatefulPartitionedCall/model_1/conv2d_14/Conv2D/ReadVariableOp", "shape": [1, 1, 256, 64], "dtype": "float32"}, {"name": "StatefulPartitionedCall/model_1/conv2d_14/BiasAdd/ReadVariableOp", "shape": [64], "dtype": "float32"}, {"name": "StatefulPartitionedCall/model_1/concatenate_1/concat/axis", "shape": [], "dtype": "int32"}, {"name": "StatefulPartitionedCall/model_1/conv2d_20/Conv2D/ReadVariableOp", "shape": [1, 1, 480, 64], "dtype": "float32"}, {"name": "StatefulPartitionedCall/model_1/conv2d_20/BiasAdd/ReadVariableOp", "shape": [64], "dtype": "float32"}, {"name": "StatefulPartitionedCall/model_1/concatenate_2/concat/axis", "shape": [], "dtype": "int32"}, {"name": "StatefulPartitionedCall/model_1/conv2d_26/Conv2D/ReadVariableOp", "shape": [1, 1, 512, 64], "dtype": "float32"}, {"name": "StatefulPartitionedCall/model_1/conv2d_26/BiasAdd/ReadVariableOp", "shape": [64], "dtype": "float32"}, {"name": "StatefulPartitionedCall/model_1/concatenate_3/concat/axis", "shape": [], "dtype": "int32"}, {"name": "StatefulPartitionedCall/model_1/conv2d_32/Conv2D/ReadVariableOp", "shape": [1, 1, 512, 64], "dtype": "float32"}, {"name": "StatefulPartitionedCall/model_1/conv2d_32/BiasAdd/ReadVariableOp", "shape": [64], "dtype": "float32"}, {"name": "StatefulPartitionedCall/model_1/concatenate_4/concat/axis", "shape": [], "dtype": "int32"}, {"name": "StatefulPartitionedCall/model_1/conv2d_38/Conv2D/ReadVariableOp", "shape": [1, 1, 512, 64], "dtype": "float32"}, {"name": "StatefulPartitionedCall/model_1/conv2d_38/BiasAdd/ReadVariableOp", "shape": [64], "dtype": "float32"}, {"name": "StatefulPartitionedCall/model_1/concatenate_5/concat/axis", "shape": [], "dtype": "int32"}, {"name": "StatefulPartitionedCall/model_1/conv2d_44/Conv2D/ReadVariableOp", "shape": [1, 1, 528, 128], "dtype": "float32"}, {"name": "StatefulPartitionedCall/model_1/conv2d_44/BiasAdd/ReadVariableOp", "shape": [128], "dtype": "float32"}, {"name": "StatefulPartitionedCall/model_1/concatenate_6/concat/axis", "shape": [], "dtype": "int32"}, {"name": "StatefulPartitionedCall/model_1/conv2d_50/Conv2D/ReadVariableOp", "shape": [1, 1, 832, 128], "dtype": "float32"}, {"name": "StatefulPartitionedCall/model_1/conv2d_50/BiasAdd/ReadVariableOp", "shape": [128], "dtype": "float32"}, {"name": "StatefulPartitionedCall/model_1/concatenate_7/concat/axis", "shape": [], "dtype": "int32"}, {"name": "StatefulPartitionedCall/model_1/conv2d_56/Conv2D/ReadVariableOp", "shape": [1, 1, 832, 128], "dtype": "float32"}, {"name": "StatefulPartitionedCall/model_1/conv2d_56/BiasAdd/ReadVariableOp", "shape": [128], "dtype": "float32"}, {"name": "StatefulPartitionedCall/model_1/concatenate_8/concat/axis", "shape": [], "dtype": "int32"}, {"name": "StatefulPartitionedCall/model_1/flatten/Const", "shape": [2], "dtype": "int32"}, {"name": "StatefulPartitionedCall/model_1/dense_1/MatMul/ReadVariableOp", "shape": [1024, 6], "dtype": "float32"}, {"name": "StatefulPartitionedCall/model_1/dense_1/BiasAdd/ReadVariableOp", "shape": [6], "dtype": "float32"}]}]}